final_model.pt (torch, 14576 bytes, 5 tensors)

weight f4 [64, 7]
00000000: 350a 6e3e fcf7 383d 4026 183f 81be b8be
00000010: 9aea 1a3f 361d 193e d89a 5ebd ad30 8ebe
00000020: 349d fb3d fa71 b1be d141 b5be c978 a53e
00000030: 938b 163e 9877 5fbe e20e a5be 4e58 00bf
00000040: b0d6 343f 74cf 17bf 6d68 b4be 8c7e 5f3e
00000050: 94cd 8e3e 7f87 18bf 7d68 cf3e 6e65 2e3e
00000060: 952c 1c3e d3ff 61be 57ae c7be aebf 993e
00000070: 473b a3be 507b fabe cdfb a3bd 0afb 5b3e
00000080: a1d3 0a3f ff6d 493f 222a de3e 7c05 933e
00000090: b3fb fd3e 6c36 7a3e 32b1 1bbe 30de c0be
000000a0: 2fdf f23e 9f71 90be 7681 1ebe 28ac a33e
000000b0: cc47 03be 8156 c73d f474 17bf c68f 543e
000000c0: 7e08 34bf e147 66be d486 003f 6cf3 513e
000000d0: d50b 49bd 0b05 683f a16d 53bd f31b 353d
000000e0: cc65 023e 9678 88bc 2d0c d33d 3b9e e13e
000000f0: 1522 dd3e 4385 3bbf 8e42 1d3e 97c5 583e
00000100: 9c46 263f b1b1 29bf 8731 2d3f 2098 90bd
00000110: 174f a2bd 3264 9bbe f6e0 abbd d949 0d3f
00000120: 1fb5 4f3e f8d2 f83d a5f6 853f 2482 4bbd
00000130: 3242 07bf 2371 c73e 1ce8 9b3e 3735 473e
00000140: 4591 673c cd13 2fbe c0c7 b13b bc04 9cbe
00000150: ee51 6b3e 8267 17be 9778 a0be 47ed d1bd
00000160: 596a 83bf e4d9 f33e 9249 943e 205b 80be
00000170: 2196 2e3f 637b 3c3e 3255 37be eba6 ddbe
00000180: 6b60 613f 6d36 cbbe 2b26 793c 673c d13e
00000190: 871e 32bf 50d8 47bd b644 d4be 927e 873e
000001a0: d269 5e3e ebb3 08bd c362 0dbe 41fd 003f
000001b0: e8f9 1fbf 755e 163f 67ec a13e b311 32bd
000001c0: e8ec 67be 8752 83be fb81 e33e 2f75 86be
000001d0: 7355 653e 2459 ae3d f626 ae3c 1fa2 fe3e
000001e0: 71eb 8c3e e968 3abd f903 403f 668d 843d
000001f0: c714 a8be b2bf 74bd 684e 15b9 500d abbd
00000200: 0837 37bd 2db5 51be 5f13 5a3e 1184 143e
00000210: 1bf1 22bf 15fc c3be b500 553e a270 2a3f
00000220: 91bb 773e 8fdf c63e f68a c73e b5ca 9d3d
00000230: 177a f63e 600a 13be 88f6 9cbe add6 fa3e
00000240: 0765 ddbe 29fb 923e 83f5 a5be 2814 b9be
00000250: 9b68 2c3f 8f89 d5be 0a7d ac3e d3c9 41be
00000260: f8b7 03bd 2236 dabd f385 dd3c b89f 0abe
00000270: e547 97bc 453a 97be 4f81 043f 7a28 59bd
00000280: 8f4c 01bf a087 9fbe 3d2c 533e 703e bdbe
00000290: e005 04be a85e adbe 3543 9b3c 658b 763e
000002a0: 5052 c7be a39f 29bf 3e67 043f a432 51be
000002b0: dd4e 0bbe a630 453f 9721 1a3d be62 fbbe
000002c0: fe2a d13c 86f2 2ebc fda2 583e 17f2 123f
000002d0: 90c6 1d3f 5ff9 9a3c c9be 673e fc0d 17be
000002e0: d668 213e 8f47 783f dab7 79be 92fa 94be
000002f0: 8921 90bd 47e2 803e 7206 963e 01c6 4a3e
00000300: b19b 873e ff2c 43be c7e9 e53e 4d0d 45bc
00000310: 9344 63be 6ea1 de3b a442 473f 88fd 3dbe
00000320: 53e7 7f3f a19c 51bd ff97 71be dc46 e53e
00000330: 27ee a83e 29b9 4e3e 3746 0d3f 737c 89be
00000340: 1107 af3e 8fe2 63bd 501b 523f ed00 333e
00000350: bb64 1cbf 9dcf 4ebd c492 e7be afe6 a1be
00000360: 9857 f4bb 44ee 0dbf 1d60 d0bd 3fe1 2e3f
00000370: 448b 00bf 788b 463f 0e1c 033e 5e42 bfbe
00000380: 864b 5bbe 7015 bc3c 64e4 d83e 2e63 4ebe
00000390: 339b 20be c826 1d3f b14b 57be 74d9 55bd
000003a0: 2e94 f0bd 8c35 b93e b639 0bbd a800 6f3c
000003b0: 0303 5fbe e884 bdbd 68e9 87be b9cb 5abe
000003c0: 2fb4 573e c117 a33d 4971 fe3e f77f d73e
000003d0: ff7a 11be eddf d63d d6a2 8c3c 3216 a83e
000003e0: 331c 4b3e 52d7 463f 2f13 c1be 841e cdbe
000003f0: 50ac 733e 038e 86bc 0182 2cbf 22b7 91be
0.23246081 0.04515837 0.59433365 -0.36082843 0.60514224 0.1495255 -0.05434689 -0.27771512
0.122858435 -0.3465727 -0.35401776 0.32318714 0.14701681 -0.21822965 -0.32237917 -0.5013474
0.7064009 -0.59300923 -0.3523592 0.21825618 0.2789122 -0.5958175 0.40509406 0.1703088
0.15251382 -0.22070245 -0.39000198 0.30029052 -0.31881163 -0.48922205 -0.080070116 0.21482483
0.5422917 0.78683466 0.4339152 0.28715122 0.49606094 0.24434823 -0.15204313 -0.37669516
0.474359 -0.28211686 -0.15479073 0.31967282 -0.12820357 0.09733296 -0.5916283 0.2075797
-0.7032546 -0.22488357 0.5020573 0.20503014 -0.04908355 0.90632695 -0.051618222 0.044216108
0.12734145 -0.016659062 0.10305057 0.44066033 0.43190065 -0.73250216 0.1535742 0.21169125
0.6495149 -0.6628676 0.676537 -0.070602655 -0.079252414 -0.3034988 -0.08392517 0.5519081
0.20283936 0.12149614 1.0465895 -0.04968466 -0.5283538 0.38953504 0.30450523 0.19453894
0.014133756 -0.17097397 0.0054254234 -0.30472362 0.22980472 -0.14785579 -0.31342003 -0.10250335
-1.026683 0.47627175 0.2896238 -0.25069523 0.6819783 0.18406443 -0.17903593 -0.4329141
0.8803775 -0.3968996 0.015206854 0.40866396 -0.6957783 -0.048790276 -0.41458672 0.26463753
0.21720055 -0.03337471 -0.13807206 0.50386435 -0.624907 0.5873788 0.31625673 -0.04347391
-0.22648966 -0.256489 0.44435105 -0.2626128 0.22395878 0.08513096 0.021258812 0.49733064
0.27523378 -0.045510206 0.7500606 0.06472282 -0.32828352 -0.059753127 -0.00014238956 -0.083521485
-0.044730216 -0.2047927 0.21296452 0.14503504 -0.6364915 -0.3827826 0.20801051 0.66578114
0.24192645 0.38842437 0.38973206 0.07704679 0.48140022 -0.14359426 -0.30656838 0.4899191
-0.4324114 0.28707245 -0.32413873 -0.3614819 0.67347115 -0.4170651 0.33689147 -0.18924646
-0.03215787 -0.10654856 0.027041411 -0.1353749 -0.0184669 -0.29536644 0.5175981 -0.053017117
-0.50507444 -0.3115816 0.20622344 -0.369617 -0.12892866 -0.3386128 0.018952945 0.24076612
-0.38929987 -0.6625921 0.51720035 -0.20429474 -0.13604303 0.77027357 0.03762969 -0.49098772
0.025533196 -0.010677939 0.21155925 0.5740065 0.6163111 0.018917738 0.22631373 -0.14751428
0.15762648 0.9698419 -0.2438654 -0.2909742 -0.07037646 0.25172636 0.29301792 0.19802095
0.2648597 -0.19060133 0.4490492 -0.012027097 -0.22194128 0.0067941463 0.7783606 -0.18553746
0.9996235 -0.051174764 -0.23593138 0.44780624 0.32994196 0.2018782 0.55185264 -0.2685276
0.3418508 -0.055635985 0.82072926 0.17480822 -0.610912 -0.050490964 -0.4522916 -0.3162131
-0.007456731 -0.5544169 -0.10174582 0.6831245 -0.502125 0.7755656 0.12803671 -0.37355322
-0.21415529 0.022959441 0.42361748 -0.20155022 -0.15684204 0.613873 -0.21024968 -0.052209333
-0.11747013 0.36173666 -0.033990584 0.014587559 -0.21778493 -0.092538655 -0.26545262 -0.21366777
0.21064828 0.07963515 0.49695805 0.42089817 -0.14207076 0.10491929 0.01716749 0.32829434
0.19834976 0.776723 -0.37709948 -0.40062344 0.23796201 -0.016425138 -0.6738587 -0.28460032

bias f4 [64]
00000000: f03a 24bf 57af b8be 472f 0dbe 1c17 10bf
00000010: ee2e b0be ef9d 16bf 3081 cebd 3cf9 75be
00000020: 8bba d7bc b883 b039 a09d 95be f028 133e
00000030: df63 adbe f520 d1be e32f bebd 7c05 d9be
00000040: 10ba bd3e efc6 8abe 9624 0cbf 0375 4fbf
00000050: fcc4 03bf e2ba dfbe 070a 3dbe 36d3 30bf
00000060: bbd5 a6be 83cb cdbe 7591 16bf 0489 5cbe
00000070: 6f24 c2be 8ff8 0fbf 2ec8 9a3c d3fd 55be
00000080: 022e 933c 83fa 7c3e 98ed 853e 45da 40bf
00000090: be01 dbbe f03e 84be 37dc 993e f6f3 77be
000000a0: 3ae0 413d 4239 02bd 756a 313d bf99 83be
000000b0: c9f2 e13d e07f debe 7af7 34be 869f fdbc
000000c0: 53a6 edbe a0f1 c4be 2d1f 1abe be44 f1bd
000000d0: 13fa 3abe e15b 31be 1f95 8abe df07 ddbe
000000e0: bc8b e03d 8e6d 903d 3987 cfbe b8f8 6fbe
000000f0: 70e3 6cbe 4505 18bf 3b97 cabe dffc 99be
-0.6415243 -0.36071274 -0.13787566 -0.5628526 -0.34410805 -0.5883474 -0.10083234 -0.24020857
-0.026334068 0.00033667474 -0.2922182 0.14371085 -0.33865258 -0.40845457 -0.092864774 -0.42386997
0.37056017 -0.271049 -0.54743326 -0.8103792 -0.5147245 -0.43697268 -0.18460856 -0.6907228
-0.32584938 -0.4019433 -0.588157 -0.21536642 -0.37918422 -0.56238645 0.018894281 -0.20897608
0.017966274 0.24704938 0.26157832 -0.7533305 -0.42774767 -0.25829268 0.30050823 -0.24214157
0.04733298 -0.031792887 0.043314416 -0.25703236 0.11032636 -0.43456936 -0.1767253 -0.030959856
-0.46415958 -0.38465595 -0.15050955 -0.1178069 -0.18259458 -0.17320205 -0.27066895 -0.43170068
0.10964152 0.07052146 -0.40532854 -0.23434722 -0.23133636 -0.5938304 -0.39568505 -0.30075738

weight f4 [32, 64]
00000000: 9549 d3be 2b1c 703d 9e49 74be 53d8 a13e
00000010: 4a76 83be c0c1 063f 040a 843d 2a20 ddbd
00000020: 5c59 f5bd e705 643e f03e 4bbd 2ede 8f3d
00000030: 1a24 52be 22e8 923e 418b a83e 02a4 04bf
00000040: 20ec e0be 44e7 e73e fb67 29be ed12 8cbe
00000050: 5798 a33d 5e7b b83e b4da 04be b2fa 4b3e
00000060: 40b0 81bf 22b6 20bd ac98 773e 2c4c ac3d
00000070: 319a 22bf 3070 1b3f f229 2c3e ed2b 273e
00000080: 2547 38bd a912 1ebd 9aad e4be a22b bfbe
00000090: 03e0 963e ca4c f63e 03d9 abbb 3a89 aebe
000000a0: 5b57 3c3e 77eb e63d 002d f23d 2f72 63bb
000000b0: af84 21bf 172f 063c 032a 8f3d 53bd a33c
000000c0: dd51 44bd 2537 503e 1858 383d b691 283e
000000d0: 9634 adbe 6078 cdbe 0b59 2bbe ad01 53bd
000000e0: ce3d ef3c 519c a73d 1a14 ad3d d7d2 b23e
000000f0: fa4f 99be 05ba 973e ad82 ae3e 0e8e c9be
00000100: 739e 0dbc 8503 97bb cf81 23bf b98b 0abf
00000110: c4df a5be aae0 63be dc55 44bf 3bc3 093e
00000120: 3738 27bf 4c2f e0be 7427 bd3c 3766 b93e
00000130: 09f1 4fbe 2d62 c4be 307e 66bd 9f29 1c3e
00000140: 6939 0dbc 87aa 9dbe 2464 e8be 3d55 56bf
00000150: e4ed c8be 9431 b5be 64f6 50bf f937 2cbe
00000160: cab4 d4be 4835 66bf d36a 99be 478a b23e
00000170: 5813 74be 463a 423e c4c0 a33e 82fb 96bd
00000180: 0548 85bd 3b8f f3bc ad19 c4be 08f7 e4be
00000190: 9fc7 31bf 6728 a43e 6034 20be 93f3 88bd
000001a0: 7acb c83e eded cebe 7883 043e 3005 dabe
000001b0: 89d3 383e 07c0 443e 5a93 63bf fd81 82bd
000001c0: e3a6 fdbe 36bb abbe 4f67 9cbd 42c6 a8be
000001d0: 67ad c73e 11dd 1d3d 0e71 11bf e011 51bf
000001e0: 85fe e43e 4b89 1abd 4298 c2bf d4a7 45bf
000001f0: a2a8 d43e 99b2 86bf 9bdb 11bf ab7f f8be
00000200: b193 fbbe 40a5 fb3d 5a14 353c d127 943e
00000210: 2227 25bd 4825 c1be 8de0 483e 2f98 d9be
00000220: d975 38bd 6208 8ebe 73b7 a7be 6e16 a93e
00000230: bbc4 d1bd 6b10 91be eb66 e6be 8cce a6be
00000240: 114d df3c 9c16 28be be6d 553e 5d69 9fbd
00000250: 06ea 923e f0db 92be 3635 743e f634 afbe
00000260: 4714 f73b 013c adbe 55f8 133d f9ee 1dbe
00000270: 68b8 10bf 4a65 87bd 0caa af3c 4e77 efbe
00000280: 3598 d7bd d3b5 2a3e 6342 cb3c 90f5 77be
00000290: 22d8 f43d 2b31 babe 7267 af3d 2a3f 683e
000002a0: 1520 8cbd a983 a63d a838 a43d 7b68 a2bc
000002b0: a3ba 33bd ac08 0dbf 88ff 21be 5a64 f0bb
000002c0: c0c2 043e 9f6c d8bd bc94 8d3c 69a3 98be
000002d0: 09d6 dc3c ce34 8abd 079e 1e3e fcfa 403e
000002e0: 8708 9f3e 6f38 433b 6afd 143e 1fca 2dbc
000002f0: 7e6a b93d 9519 33be 278f a8be fa1c 15bf
00000300: 066c c33e 800d 92bc 145a 1f3d 1c1b be3c
00000310: 1a8e 47bf 1230 c63e 40e6 443e 372c 86bd
00000320: c104 23bf 0374 55be 0230 acbe 3066 c63e
00000330: a3f0 8dbd 4644 3b3e be92 2cbe 10b3 4f3e
00000340: 6265 aebe ae69 5abe e057 32bd 96d5 52bf
00000350: 8b24 68bc 4df2 163e 98b6 c538 ac17 4f3e
00000360: 6bb0 e2bd c2da fabe 30fc 2ebd a6d5 a63e
00000370: 1333 6fbe 056b d83e 0d51 8f3d 2454 dd3e
00000380: 7987 103f b060 83be 4448 5bbe 9635 9dbe
00000390: ed3e a23d c3a0 55bd 1735 25be 522e acbd
000003a0: 7de6 0d3f 8841 bdbd 6635 8cbe be6c 0fbf
000003b0: fc82 20be 7ed4 af3c 89d8 b4be 2fe2 25bd
000003c0: fbf2 abbd a449 24be 35b1 a4be 3b1d b23e
000003d0: efa0 4d3d 669d cabc d95d 1bbe 4fa1 0d3d
000003e0: 7b8d fb3e b691 813e cbf3 023d fed2 9c3c
000003f0: b419 3f3e 1f24 b23e 7519 c73e accf cebd
-0.41267076 0.058620613 -0.23856208 0.31610355 -0.25676185 0.5263939 0.06447223 -0.107971504
-0.119799346 0.22267877 -0.04962057 0.07024799 -0.20521584 0.28692728 0.32918742 -0.51812756
-0.4393015 0.4529363 -0.16543572 -0.2735819 0.07988041 0.36031622 -0.12974054 0.19919851
-1.0131912 -0.039236195 0.24179333 0.08412966 -0.6351653 0.6071806 0.16812876 0.1632535
-0.044989724 -0.038592014 -0.44663697 -0.37337977 0.29467782 0.4810546 -0.0052443757 -0.3408907
0.18392698 0.1127538 0.11824989 -0.003470551 -0.63093084 0.008189938 0.06990435 0.019987738
-0.047929633 0.20333536 0.045005888 0.16461834 -0.33829182 -0.401309 -0.16733186 -0.05151527
0.029204275 0.08184112 0.084511 0.34926483 -0.2994383 0.2963411 0.34084073 -0.39366192
-0.008643734 -0.004608574 -0.6386995 -0.5411945 -0.32397282 -0.22253671 -0.7669351 0.13453381
-0.6532015 -0.43786085 0.023090102 0.36210796 -0.20306791 -0.38356152 -0.056272686 0.15250252
-0.008619645 -0.30794165 -0.453889 -0.83723813 -0.39243996 -0.35389388 -0.8162596 -0.16818227
-0.4154418 -0.8992505 -0.29964313 0.34871122 -0.23835504 0.18967542 0.31983006 -0.0737219
-0.06507877 -0.029731384 -0.3830084 -0.4471972 -0.6944522 0.32062075 -0.1564498 -0.06687083
0.3921774 -0.40415898 0.12940776 -0.42582083 0.18049444 0.19213878 -0.88896716 -0.063724495
-0.49541387 -0.33541268 -0.07636892 -0.3296376 0.38999483 0.038540903 -0.5681313 -0.816679
0.44725433 -0.03772859 -1.5202715 -0.7720921 0.41534907 -1.0523254 -0.56975716 -0.48534903
-0.49136117 0.12287378 0.0110522155 0.28936628 -0.040320523 -0.37723756 0.1961691 -0.4249892
-0.045034263 -0.2774077 -0.32757148 0.33024925 -0.102426015 -0.28332838 -0.45000395 -0.32579458
0.027258428 -0.16414875 0.20842645 -0.07783768 0.2869417 -0.28683424 0.23848423 -0.34220093
0.007540259 -0.33834842 0.0361255 -0.15423192 -0.5653138 -0.06611116 0.02144339 -0.4677071
-0.10527078 0.16670923 0.02481193 -0.24214768 0.119552866 -0.36365637 0.085646525 0.22680345
-0.06842057 0.08130581 0.08018619 -0.01982521 -0.043879163 -0.5509136 -0.15820134 -0.0073361816
0.12964916 -0.10567593 0.017282836 -0.29812172 0.026957529 -0.06748353 0.1548997 0.18845743
0.31061193 0.0029788276 0.14549795 -0.010607271 0.09053515 -0.17490228 -0.32921717 -0.5824734
0.38168353 -0.017828703 0.038904265 0.023206286 -0.77951205 0.3870855 0.19228458 -0.06551402
-0.6367913 -0.20845036 -0.33630377 0.38749838 -0.069306634 0.18287763 -0.16852853 0.2028315
-0.34061724 -0.21329376 -0.043540835 -0.82357156 -0.014168869 0.14740868 9.427703e-05 0.20223874
-0.11068805 -0.48995024 -0.042720973 0.32584876 -0.23359327 0.4226915 0.06997881 0.43228257
0.56456715 -0.25659704 -0.21414286 -0.30704945 0.079221584 -0.052155267 -0.16133533 -0.084072724
0.5542982 -0.09241015 -0.2738449 -0.560253 -0.15674967 0.021463629 -0.35321453 -0.04049891
-0.08395954 -0.16043717 -0.32166448 0.34787926 0.050202306 -0.024733257 -0.15172519 0.034577664
0.4913138 0.2530648 0.03197078 0.019143578 0.18662149 0.34793183 0.3888661 -0.10098204

bias f4 [32]
00000000: 562f 3f3d 3e69 2e3e d295 c23e ab71 38be
00000010: 4c92 d93e 842b 0d3b 8519 c8bd 35b7 8abe
00000020: dba1 7c3b 8c9c be3e 1898 0fbe 4510 f2bd
00000030: 2eee abbe ebeb 213f 4798 213f 2613 6abe
00000040: 6a5b b83e 7adb 3dbe bb79 6c3e 4820 c13e
00000050: 548c 4bbd ae29 5738 3532 263f 2592 20bd
00000060: 538c d9be 12fb 29be 7469 df3e db6d ea3e
00000070: dcc9 163f 1e8d 5c3d af21 2fbe 663f 2a3f
0.046676002 0.17032334 0.3800493 -0.18012111 0.42494428 0.002154083 -0.097704925 -0.270929
0.0038548622 0.3722881 -0.14022863 -0.118195094 -0.33580154 0.6325061 0.6312298 -0.22858867
0.36007243 -0.18540755 0.23093311 0.3771994 -0.049694374 5.129881e-05 0.6492036 -0.039201874
-0.4248987 -0.16599682 0.43635142 0.45786938 0.5890176 0.053845517 -0.17102693 0.6650299

weight f4 [1, 32]
00000000: 0409 27be 4619 7fbe 0e16 e43d cd19 29be
00000010: 0ac5 3dbe 9294 9cbe 1c2d 53be af5f 2c3c
00000020: 2e39 c9bd 262e f93e 8575 303e b729 82bd
00000030: b2de fd3d fdc6 453f d4e0 ac3e c9ad 0cbd
00000040: c47b b9bd 4e6f f23d e4a4 5abe a839 d43e
00000050: 7110 2b3e dc41 003e 5d0a 943e 4c9e 26bd
00000060: edfd e23d 3aa6 3f3e bf8f bd3e 0f94 203f
00000070: 92a5 f03e 79fd 24bd cd92 eabd b8d6 f53e
-0.16312033 -0.24911985 0.11137019 -0.16513748 -0.18532196 -0.305821 -0.20622677 0.01052086
-0.09825359 0.4866802 0.1723233 -0.06355613 0.123959914 0.7725676 0.3376528 -0.034345422
-0.090568095 0.11837636 -0.21351963 0.41450238 0.1670549 0.12525123 0.28914157 -0.040678307
0.11083589 0.18715754 0.37023732 0.6272592 0.4700132 -0.040280793 -0.11453781 0.4801538
