improved_model_food.pkl (torch, 50768 bytes, 7 tensors)

weight f4 [128, 8]
000000 b5 3f b1 be bb 31 ed be 15 5b 10 be 19 dd 94 3e
       -0.34618917 -0.46327004 -0.14097245 0.29074934
000010 2a 27 31 3f c8 f2 4e 3e 7f c7 ec bd 50 9e 04 3f
       0.69200385 0.20209801 -0.11561488 0.51804066
000020 59 58 b9 3d 72 59 04 bf 1d 32 a5 3e 86 50 8c be
       0.09050054 -0.5169898 0.32264796 -0.27405185
000030 0a b3 c7 be 8d 14 cb be 65 08 d6 3d a7 5d 9f 3e
       -0.39003783 -0.39664117 0.1045082 0.3112614
000040 88 26 65 ba fd 09 fe bd e5 5f 9d 3e 35 0a 38 be
       -0.00087413983 -0.12404249 0.30737224 -0.17972644
000050 73 50 05 3f 41 14 14 bf 99 56 00 be 02 bf 94 bd
       0.5207588 -0.57843405 -0.12533034 -0.07262994
000060 04 c0 12 bf b1 d6 c0 bc 9b 71 16 3f d0 32 f1 be
       -0.5732424 -0.023539873 0.587671 -0.4710908
000070 1d 67 6f be 39 37 f3 3d 77 23 0c 3e 8d 34 9f bd
       -0.23379178 0.11875767 0.13685404 -0.07773695
000080 2c e3 79 3d e0 54 94 be 0e 6c 43 3e 7b 65 bc be
       0.061007664 -0.28971004 0.19084188 -0.36796173
000090 7a f9 f5 3c 08 a0 98 3e d4 14 65 be cb dc 93 be
       0.030026186 0.29809594 -0.22371227 -0.2887939
0000a0 b4 53 78 be 19 46 91 be 10 1c 4c 3f 57 f9 da be
       -0.2425068 -0.28373793 0.7973032 -0.42768356
0000b0 6e 9e 09 3f 6f 53 02 3e 5c 55 57 be 51 9b 13 3e
       0.5375737 0.1272714 -0.21028656 0.14414717
0000c0 ba 13 0f be e6 47 7d bd fc e7 59 be df ad 10 bf
       -0.13972369 -0.061836146 -0.21279901 -0.56515306
0000d0 ef 03 91 3e 6a a7 fb bd 38 a8 d0 3e d7 11 f9 3e
       0.28323314 -0.12287791 0.4075334 0.48646423
0000e0 40 b5 4f 3e 86 96 a8 3c 26 e9 cc 3d 3c d2 47 be
       0.20283985 0.020579588 0.10005407 -0.19513792
0000f0 ae c4 80 be 4e d3 9c 3d e5 88 8f 3d 98 c6 65 be
       -0.25150055 0.07657491 0.070085324 -0.22439039
000100 76 3b ee bd cb e7 01 3b 8c 5c a1 3e 36 5d 5b bd
       -0.11632435 0.0019821997 0.3151592 -0.05355569
000110 cf 32 0d be e5 6e 85 bc a5 5e 35 be b9 70 85 bc
       -0.13788913 -0.01628823 -0.17711885 -0.016289102
000120 11 d8 1d 3e d9 04 71 be 1d fe a4 3d e9 83 fe be
       0.15414454 -0.23537005 0.08056281 -0.49710014
000130 11 43 37 3f ed b6 a0 bd d7 05 8d be 55 26 21 bf
       0.7158671 -0.0784739 -0.27543518 -0.62949115
000140 ff c7 00 bd 86 bd 24 3f f9 d5 f0 3e 59 a2 d0 be
       -0.03144073 0.6435169 0.47038248 -0.4074886
000150 10 a7 99 be 50 a3 21 3f 4f 56 b8 be 48 68 cc be
       -0.3001027 0.6313982 -0.36003348 -0.3992331
000160 de 7e 27 be e1 9b 19 be 20 1c 2b 3c cd 6d 36 3e
       -0.1635699 -0.1500087 0.010443717 0.17815323
000170 c1 2a f2 3e 57 bf 0a 3e a2 0a 9c 3e a4 83 b2 3e
       0.47298244 0.13549553 0.30476862 0.3486606
000180 2b 97 e7 be 94 21 ee bc a3 ee c7 3e 4c 6d d0 be
       -0.4523252 -0.029068746 0.39049253 -0.40708387
000190 37 fd 06 bf d3 20 0d 3f 02 8e 33 be ed 8e 9b 3e
       -0.52730125 0.5512821 -0.1753464 0.3038248
0001a0 7c 9f 32 be a6 41 32 bc e1 1d 09 3f 27 ca 02 bf
       -0.17443651 -0.01087991 0.53561217 -0.5108971
0001b0 bd 87 e6 3e 6f 04 aa 3d 16 90 79 bc 46 14 37 be
       0.45025435 0.08301627 -0.015232107 -0.17878827
0001c0 7b e6 cb be db ef 23 be e9 1a 3a 3e ce 15 80 3d
       -0.3982428 -0.16009466 0.18174328 0.06254159
0001d0 aa f1 b0 bc 63 44 86 bd 2e 5a 0b 3f 2b ae ee 3e
       -0.02159961 -0.065560125 0.5443448 0.46617255
0001e0 89 54 19 3e 02 e6 27 3f 41 7f 6d be 60 bb e5 3d
       0.14973654 0.6558534 -0.23193075 0.112173796
0001f0 5a fb 07 3f 6f ea e4 be 10 f8 ea be 7d c4 2c be
       0.5311791 -0.4471011 -0.45892382 -0.1687183
000200 61 74 a6 be b4 62 b7 be 6b cd 93 3e c0 f5 65 3d
       -0.32510665 -0.35817492 0.2886766 0.05614257
000210 bc c1 8d bd bd ef fa 3d 93 8c 16 3e ba 76 02 be
       -0.069217175 0.12252758 0.14702062 -0.12740603
000220 7d 58 12 bf ed f7 b0 3e e8 ef 53 3f 93 6a 09 be
       -0.5716627 0.34564152 0.8278794 -0.13419561
000230 c6 7e a0 be 2a 4f 26 be a9 75 94 be 57 6b 78 bd
       -0.3134672 -0.16241136 -0.28996018 -0.060649242
000240 4d c0 6f bd 56 48 24 be e0 2e bb 3e 90 a0 b8 3e
       -0.058533 -0.16043219 0.365592 0.3606
000250 31 a0 0c 3e 13 fb ad be ae a7 8f bd 8a dc 6f be
       0.13732983 -0.33980617 -0.07014404 -0.23423973
000260 7a 9a 06 be ca 25 f7 be d4 a8 9c bd 4a c1 3b 3f
       -0.13144866 -0.48271018 -0.07649389 0.7334181
000270 c7 99 b4 be 1e 3b d0 3d 17 22 1d bd a4 b0 13 3f
       -0.35273573 0.10167526 -0.03836259 0.5769141
000280 f8 42 d9 3c fe 4c 46 3e ef 14 3e 3f a8 b5 a4 be
       0.026521191 0.19365308 0.7425069 -0.32169843
000290 2f 1b 5d bf 12 29 ed 3e c0 78 2c be c3 4c 93 be
       -0.86369604 0.46320397 -0.16842937 -0.28769502
0002a0 3b 61 77 3e 3f e2 05 be 36 d1 f7 bb 55 28 99 bd
       0.24158184 -0.13074587 -0.0075627817 -0.07478396
0002b0 19 73 92 3e 25 ad a6 3d 65 1b bb 3e 50 28 21 bf
       0.28603438 0.081384934 0.36544338 -0.62952137
0002c0 e6 41 fa 3c 74 4d 7d be 0d 6c 7d be 33 fe e4 be
       0.030549001 -0.24736577 -0.2474825 -0.4472519
0002d0 60 f5 a0 3e 6c c9 7a 3c da 85 2f 3e 9d 78 3b 3f
       0.31437206 0.015306812 0.17140904 0.73230916
0002e0 96 03 86 3d 8e 53 b4 be 4f ea e1 3b 77 ab 3d bb
       0.06543653 -0.35219997 0.006894387 -0.0028941312
0002f0 23 7b 03 be 53 3c ab bd 85 9f 00 3f fc 04 cf be
       -0.12839942 -0.08361115 0.5024341 -0.4043349
000300 bc 35 cd be 6b 53 09 3e 6e b4 f6 3e 34 44 9b be
       -0.4008006 0.13410728 0.48184532 -0.30325472
000310 21 1c 3f bf 3e 59 51 3e b2 98 a2 3d 1d 4c d7 3d
       -0.74652296 0.204442 0.079392806 0.10512564
000320 cf b4 06 3e 8b 41 9b 3e 71 db aa be 3c c7 ac 3e
       0.1315491 0.30323443 -0.33370546 0.33745754
000330 72 92 8e be e7 bf ad 3e 7d 1f 83 3e ce 34 e1 3c
       -0.27846104 0.33935472 0.2560996 0.027491
000340 46 85 34 bd 73 b8 00 bf a1 7a 08 3e df 11 3e 3f
       -0.044072412 -0.5028145 0.13328029 0.7424602
000350 c7 bc b4 3e 83 be b3 3e ad 14 33 3e d9 7d 61 3e
       0.35300276 0.35106286 0.17488356 0.22020663
000360 eb 97 32 be 93 03 05 be 90 6e 50 3f b1 1f 27 bf
       -0.17440765 -0.12989645 0.81418705 -0.6528273
000370 90 49 a6 3e 35 f1 3b 3d d3 94 18 3e f5 d9 88 be
       0.32478 0.04588433 0.14900522 -0.26728788
000380 a6 2e 87 be 6b 2a 36 bf 9c bf 22 3f 57 7b 01 bf
       -0.26402777 -0.71158475 0.6357362 -0.50578827
000390 d3 6d 38 3f 7a 50 32 3e e4 4d 9b bd 4c 85 41 be
       0.7204258 0.17413512 -0.07583216 -0.18898505
0003a0 66 45 85 3e c4 e7 d0 3e a7 f4 e8 3e fd ce df be
       0.2602951 0.40801823 0.45499155 -0.43712607
0003b0 47 77 b9 bd 22 17 97 3e 1e f4 73 bc cb 42 d8 be
       -0.090559535 0.29509836 -0.014889745 -0.4223846
0003c0 2a 0e 36 3f ed 76 af 3e b0 93 70 be 16 4e 08 3e
       0.7111536 0.3427042 -0.23493838 0.13311037
0003d0 6b fd 4c be 8d 0c 05 bf b9 44 43 3d 6c 16 92 3e
       -0.20018546 -0.51972276 0.04767296 0.28532732
0003e0 f2 dc 92 3e 06 ce 1f be 57 14 71 3d 4f b6 df 3d
       0.28684193 -0.15605935 0.05885729 0.109234445
0003f0 ea 57 3a 3f 9a 82 b2 be 78 4f e0 3e e5 57 9a 3e
       0.72790396 -0.34865266 0.4381063 0.30145183

bias f4 [128]
000000 c7 80 26 bf 4c 78 31 be c1 bf 0f bf e7 1b 1c be
       -0.6504025 -0.17331046 -0.5615197 -0.15245019
000010 34 fc 04 be 4f fc 2e be 11 76 3c bf 91 7c c6 bc
       -0.12986833 -0.17088436 -0.73617655 -0.02422932
000020 44 3a f2 3b 5e 8d a4 be 21 e5 2f bf e8 3c c8 be
       0.0073921997 -0.32139105 -0.68709 -0.39108968
000030 e1 73 d9 bd 6f 5d 5e be 37 7b 0e bf 2b 53 ab be
       -0.10617805 -0.2171533 -0.5565676 -0.3346189
000040 ff f4 15 bf 06 00 02 bf 2f a4 f6 be c5 c0 8e be
       -0.5857696 -0.50781286 -0.48172137 -0.27881446
000050 c5 f5 18 bf 96 79 d5 3b 4b 9a 4a bf 13 31 4a be
       -0.59750015 0.0065147383 -0.7914168 -0.19745283
000060 95 c0 84 3c d3 52 42 3c 08 8b 5c bf 41 08 8d be
       0.016205112 0.011860567 -0.86149645 -0.2754536
000070 98 ea e5 3c b4 ed 0c bf d6 4c 9d be 7b a3 64 be
       0.028065965 -0.55050206 -0.30722684 -0.22327988
000080 34 2c 0f bf 8c 3f d9 be 28 02 0e bf df eb 85 be
       -0.55926824 -0.42431295 -0.5547204 -0.26156518
000090 dd c6 19 bf 1b 19 fb be 68 66 87 bf 6a 03 cc be
       -0.60069066 -0.4904259 -1.0578127 -0.39846355
0000a0 2a 4d 4d be ee 9c 99 be c0 e5 29 bf 20 3f 17 bf
       -0.20048967 -0.3000254 -0.66366196 -0.59080696
0000b0 fa 93 1c bf 56 f2 22 bf 47 5e b4 be 07 4b 3c be
       -0.61163294 -0.63651025 -0.35228178 -0.18387996
0000c0 76 b3 13 bd 94 fb 1f be ec b0 f5 be 4e f9 fa be
       -0.03605982 -0.15623313 -0.47986543 -0.4901833
0000d0 61 62 90 be c4 7b 1e bf b9 28 90 be c7 96 20 be
       -0.28200057 -0.619076 -0.2815607 -0.15682517
0000e0 60 d4 fc be 17 d9 94 bd 7f cb 9e be 5b 9f 8b be
       -0.4938078 -0.07267969 -0.3101463 -0.27270016
0000f0 da 9b 7a be 55 10 8b be 95 96 06 bf 1f cf 2b bf
       -0.24473515 -0.27160898 -0.5257352 -0.67112917
000100 66 b7 4a bd ae 51 d4 bd 07 4b 71 bf 9d ac ed be
       -0.04949131 -0.10367142 -0.9425511 -0.46420756
000110 ad 1d 29 be 0e 9d 43 be 9d 89 ec be 68 54 ec be
       -0.16515227 -0.1910288 -0.4619874 -0.46158147
000120 e3 cd 44 be 85 c2 39 bf 8a 92 01 3e 1f da b8 bc
       -0.19219165 -0.7256244 0.12653556 -0.022564946
000130 77 c2 21 be a6 6d 64 be 6b 48 c9 be 97 f6 25 bf
       -0.15796839 -0.22307453 -0.39313063 -0.6482939
000140 d8 53 11 ba 81 f5 23 be 3c ec 17 be f1 a4 9f be
       -0.0005543805 -0.16011621 -0.1483621 -0.31180528
000150 8a 4f ca be ff b3 fb be 17 82 a8 be 52 c4 bc be
       -0.39513808 -0.49160764 -0.3291175 -0.3686853
000160 3e 5e 2e bf 6b 2a 0d bf 52 3b 0b be dd 55 9c be
       -0.6811255 -0.5514285 -0.13596848 -0.30534258
000170 b2 74 78 bd cc e9 0b bf 33 58 cf be cd eb 76 be
       -0.060658164 -0.5465362 -0.40496978 -0.24113388
000180 b4 71 07 bf d7 3a a2 be e7 ee 4a be 40 98 8c be
       -0.5290787 -0.31685516 -0.19817697 -0.27459908
000190 77 6c 98 be c1 a0 c2 bd 7c 2d d1 be f9 c4 4e bf
       -0.29770252 -0.095033176 -0.40855014 -0.80769306
0001a0 31 eb e1 be 24 3a 2e 3d d1 ec 00 bf cb 13 4d be
       -0.4412475 0.042535916 -0.50361353 -0.20027082
0001b0 78 90 14 3c 1b b4 4a be 32 68 c1 be 75 aa 2b bd
       0.009067647 -0.19795267 -0.37774807 -0.041910607
0001c0 cb 37 9f bd 8f 3e 02 be 3e 1e 9c be c7 03 f3 3d
       -0.077743135 -0.12719177 -0.30491823 0.11865955
0001d0 76 f5 2d 3d f4 c3 10 bf c0 2a af bd c1 72 f4 be
       0.042470418 -0.56549 -0.08553076 -0.477438
0001e0 dd f8 98 be 49 7a 19 bd 83 4e 28 bd 29 83 4a bf
       -0.29877368 -0.037470136 -0.0410905 -0.79106385
0001f0 e0 e7 42 bd b3 3b 01 bf 7e 42 25 bf c5 20 c1 be
       -0.047584414 -0.5048172 -0.64554584 -0.37720314

weight f4 [64, 128]
000000 49 ae 4d 3e 3d 4a 25 3e 82 91 53 3e d1 d4 08 3e
       0.20086016 0.16141601 0.20660976 0.13362433
000010 2e 2f 22 bf 93 d2 f3 be b3 c2 ad 3e 57 89 d1 be
       -0.6335324 -0.47621593 0.33937606 -0.40925094
000020 48 fa b5 3d 9f 05 df bd af 9b 1c be de 6a 99 be
       0.08885628 -0.10889744 -0.15293764 -0.29964346
000030 19 e2 aa bc b6 02 8c be d2 e8 14 3e 69 93 a9 bd
       -0.020859765 -0.27345818 0.14541939 -0.082800694
000040 8e 07 69 bd 27 e6 8d be 06 28 55 3e 51 c9 37 be
       -0.05689197 -0.27714655 0.20816049 -0.1794789
000050 fe e9 a9 be b2 88 42 be 94 e7 b5 3e 05 f7 85 3e
       -0.33186334 -0.18997458 0.35528243 0.26165023
000060 d4 90 95 3d d9 6c 79 be 78 b9 bc be 9e 1c 6f be
       0.073030144 -0.24357928 -0.3686025 -0.2335076
000070 ed c8 99 be 1f 73 ad be b1 a2 84 bd d2 34 17 bf
       -0.30036107 -0.33876893 -0.064763434 -0.5906497
000080 e8 4b c1 3d d3 52 15 bc 83 e7 a9 be 54 22 9f 3d
       0.09438306 -0.009113985 -0.33184442 0.077702194
000090 70 76 03 3e 50 7f 6d be 17 6e 84 3e 82 a6 2c be
       0.12838149 -0.23193097 0.25865242 -0.16860393
0000a0 bc c2 13 3d b8 21 d2 3d 74 f2 e0 be 05 9d 02 be
       0.036074385 0.102603376 -0.43934977 -0.1275521
0000b0 5f 55 d1 3e a2 90 b1 3d b0 a7 72 bc a5 fd 2b be
       0.40885445 0.08670165 -0.014810488 -0.16795976
0000c0 5d 40 89 be c3 40 5e be c8 9b e8 be 9b 3d c5 be
       -0.26806918 -0.21704392 -0.45431352 -0.38523564
0000d0 ff d3 ec 3d 62 29 d1 be d3 ff 11 bf ca 61 80 3e
       0.115638725 -0.40851885 -0.5703098 0.25074607
0000e0 b2 d1 03 bd f4 df 3e bf 73 62 91 be 01 12 d8 3c
       -0.032182403 -0.74560475 -0.28395423 0.026375772
0000f0 6a df 40 3e 82 5b 09 bf 82 6f a5 be da 4a 2b be
       0.18835226 -0.53655255 -0.32311636 -0.16727772
000100 f4 78 40 3e cf 46 2e 3e f9 35 e8 3e 30 d7 69 be
       0.1879614 0.17019199 0.45353678 -0.22835994
000110 c1 cf 97 bf 48 5b ef bd e5 b1 8d be 34 c5 f3 3d
       -1.1860276 -0.116873324 -0.27674785 0.11902848
000120 5f a1 d1 3d be dc 44 be 90 28 f2 be df fa 9a bd
       0.10235857 -0.19224831 -0.47296572 -0.07567381
000130 ec d8 d6 be 18 c2 1f bd 22 0f f2 bd 0c 04 33 3e
       -0.41962373 -0.03900346 -0.118192926 0.17482013
000140 eb 87 19 3d d1 5f 14 bf e5 0d aa be 37 d7 cd be
       0.037483137 -0.57958704 -0.33213726 -0.40203258
000150 c0 a7 81 3e 69 3b a9 be 70 b4 97 3e 2d 5e 03 3d
       0.25323296 -0.3305314 0.2962985 0.032072235
000160 f3 30 81 bd 7b 32 dc be 62 6b d9 be ca 49 74 bd
       -0.063081644 -0.43007264 -0.4246474 -0.059640683
000170 69 16 a0 be 7b 0b c8 3d f8 c9 56 bc 2b 31 2e bd
       -0.31267098 0.09767815 -0.013109677 -0.04252736
000180 12 55 15 3e f7 4e 87 3e ca 73 9c bd 4a 25 85 3d
       0.14583233 0.26427433 -0.076392725 0.06501253
000190 d9 d6 c0 be 1e 8a f7 bd de 0e 7e bd 5a 76 41 bf
       -0.37663916 -0.12086891 -0.062025897 -0.75571215
0001a0 a1 a3 c4 3e 0d c5 b6 be 4c c9 d2 3d 82 82 bf 3d
       0.3840609 -0.35697213 0.102923006 0.09351064
0001b0 ef c6 ad bd b4 a4 26 3e 10 20 d0 bd 18 50 73 bd
       -0.08485209 0.16273767 -0.101623654 -0.059402555
0001c0 e0 79 80 be 3f da 33 bd aa 84 18 3e 36 fc 92 bd
       -0.25092983 -0.043909308 0.14894357 -0.07177012
0001d0 31 49 bc bd 55 98 33 3d 06 26 32 3e c7 e8 a2 bf
       -0.09193648 0.043846447 0.17397317 -1.2727288
0001e0 c4 db ca bd be dc d4 3d 95 c1 ad bd 4d c2 8c be
       -0.09905198 0.10393666 -0.084841885 -0.2749199
0001f0 00 7d c7 bd 11 8e bf be b7 c7 b1 be b6 9e ce 3d
       -0.09740639 -0.37413076 -0.34722683 0.100888655
000200 3a e4 2f bd 08 c5 78 bd a9 13 48 bd 2a 23 69 bd
       -0.042942263 -0.06073478 -0.048846874 -0.0569183
000210 fd 4e f1 bc 1a d8 f4 bd 5b 6b 39 3d fb 37 1c bc
       -0.02945661 -0.119552806 0.045268398 -0.009534831
000220 65 f4 99 3c 23 27 c4 3b 78 2f 81 bd f4 fc c0 bd
       0.018793294 0.005986111 -0.06307882 -0.09423247
000230 b3 f5 8d ba 15 8f bb bd a8 29 10 be d6 e6 0a 3c
       -0.001083067 -0.0915815 -0.1407839 0.008477887
000240 8e 03 37 bc 85 f7 b2 bc 72 d8 41 3c 3f 17 11 be
       -0.011170281 -0.021846542 0.01183139 -0.14169024
000250 c5 78 82 bd 21 37 05 be 55 7a d7 bd cd 50 47 bc
       -0.06370691 -0.13009311 -0.1052138 -0.0121652605
000260 9a fc bd 3b ee 16 0b be fe 06 85 bd 83 6d 18 3c
       0.0057979347 -0.13582966 -0.06495474 0.009303453
000270 be 2a be bd 2d 4c 90 3b 5a 9f df bd 60 d4 ac bc
       -0.09285496 0.004403612 -0.10919066 -0.021097362
000280 37 51 10 3d b9 0d 04 be 38 1b e3 bd c0 a7 92 3c
       0.035233703 -0.1289586 -0.11089176 0.017902255
000290 85 1f 2b bc 68 e1 f1 bd 1d b7 4e 3c 20 48 ad bd
       -0.010444527 -0.11810571 0.0126169 -0.084610224
0002a0 0f c9 ab 3d 5b c9 e5 bd 9f 29 72 bd 05 c0 6d bd
       0.08387958 -0.11220046 -0.059121724 -0.058044452
0002b0 56 c7 3d 3a be 76 fa 3c 05 72 e5 bd ea ea 75 bd
       0.0007239481 0.030574199 -0.11203388 -0.060038485
0002c0 c1 10 d7 bd 7e dd e0 bd 51 d9 f5 bd dc 5c df bd
       -0.105012424 -0.10979746 -0.120043404 -0.109063834
0002d0 e2 24 8c bc ec 6c e9 bd fe 93 01 3d 9d 40 d9 bd
       -0.01710743 -0.11397728 0.031635277 -0.10608027
0002e0 3c fa dd 3c 28 f3 d8 bd 07 10 0a be 4f 70 d5 3d
       0.02709686 -0.105932534 -0.13482676 0.10421812
0002f0 3c 3a 00 be 76 44 bc bd 07 8f 07 be e7 e8 45 3b
       -0.12522215 -0.091927454 -0.13238154 0.0030198635
000300 be 17 eb bd 85 cd 6b bc 97 f7 16 be a4 da 3e 3d
       -0.11479138 -0.014392261 -0.14742886 0.04659523
000310 47 39 3a bd a7 61 41 3c 47 45 b1 bd b1 4a d0 bd
       -0.04546478 0.011803067 -0.08655792 -0.10170496
000320 f3 88 f3 bd 99 ab 3f bd 44 58 cb bc 3b 3f bc bc
       -0.11891355 -0.046794508 -0.024822362 -0.02297937
000330 1a 86 9d bd 30 d7 bb bd 70 e0 b4 bc 02 1f 74 bd
       -0.076915935 -0.09171903 -0.022079676 -0.059599884
000340 07 67 17 be 35 7b 0e be 0c 49 8e 3c f0 b2 e3 bc
       -0.14785396 -0.13914187 0.017368816 -0.027795285
000350 02 fe 09 be a0 00 97 bd 25 02 cb 3d da 77 be 3c
       -0.13475803 -0.07373166 0.099125184 0.023250509
000360 8a f8 87 bc ad 75 a4 3d 34 85 80 bd e9 bc 0b be
       -0.016598005 0.080302574 -0.062754065 -0.13646282
000370 27 b0 ad bb bb 79 82 bd da 28 16 be bb 10 1a bd
       -0.00530054 -0.063708745 -0.14664021 -0.03761361
000380 5c a4 8f 3d 41 f7 88 bc e6 51 42 3c ea 7f b2 bd
       0.07013771 -0.016719462 0.011860346 -0.08715804
000390 95 bc d8 bc 44 2e 57 ba 14 9c f3 bd 5d ca f9 bd
       -0.02645711 -0.0008208493 -0.11895004 -0.12196801
0003a0 de 2b b8 3d 83 2b 93 3c e6 41 c3 3c 88 a6 19 bd
       0.08992742 0.017965084 0.023835134 -0.037512332
0003b0 5b 4c aa bd 88 39 2c 3a 21 51 49 bc 52 6e 1c bc
       -0.08315345 0.0006569852 -0.012287409 -0.009547787
0003c0 2e df bc bd 05 96 00 bd 28 65 3b 3c 52 84 a1 3c
       -0.09222256 -0.03139307 0.011437692 0.019716416
0003d0 e6 14 b6 bc 69 eb 1b be 1c 2c 33 bd 80 ad 13 be
       -0.022226762 -0.1522652 -0.043743238 -0.14421654
0003e0 25 d9 02 be f7 63 19 bc 1c e1 fe bd 6b b4 8e 3d
       -0.12778147 -0.009362212 -0.1244528 0.06968006
0003f0 f2 2c cb bd ca 57 0f bc ab 7b 8c bc 30 d1 15 be
       -0.09920682 -0.008748958 -0.017148813 -0.1463058

bias f4 [64]
000000 3a 06 95 3e e9 ae 0b be b3 72 e2 3c e6 43 5e 3f
       0.29106313 -0.13640942 0.027642583 0.86822355
000010 01 8b be 3e 4d c2 d5 bd 73 2b 05 be 10 bb 0f 3f
       0.37215427 -0.104374506 -0.13004856 0.5614481
000020 29 4d b2 bd 87 02 b2 bd a6 b4 66 be e4 d5 86 3e
       -0.087061234 -0.08691888 -0.2252985 0.2633506
000030 5b ae 1f 3f 61 40 33 be 43 43 71 bc ad 31 70 be
       0.6237542 -0.17505027 -0.014725509 -0.2345645
000040 fb 80 7d 3e bd bb 01 be c0 e8 90 bd 3b 97 b3 be
       0.24756233 -0.12669273 -0.070756435 -0.35076317
000050 f7 a4 d6 be c1 42 78 3e ad 12 8c 3e 83 f3 c3 3e
       -0.41922733 0.24244215 0.27357998 0.38271722
000060 19 2d 23 be 33 a9 4d be 93 5a b9 3d eb 17 42 bd
       -0.15935172 -0.20084076 0.09050479 -0.04738609
000070 b1 7d f6 bc 1d 0e ca 3d fa ce 5f 3f f5 d1 b5 bd
       -0.030089231 0.09865973 0.87425196 -0.08877937
000080 73 d5 a5 be 60 91 b9 bd d8 2a 14 bf 0d 3f 0a 3e
       -0.3238941 -0.09060931 -0.57877874 0.13500614
000090 bc 09 95 be 85 90 87 be 6c 18 31 be 8f e2 9c bd
       -0.2910899 -0.26477447 -0.17294472 -0.076604
0000a0 f1 1a da 3d 24 9b 20 be dd 15 ae be c8 e3 9f bd
       0.1064967 -0.15684181 -0.34001055 -0.07807118
0000b0 83 5a 02 3f 0d 58 61 be 1b a2 52 bd 53 85 ae be
       0.5091936 -0.22006245 -0.051424127 -0.34086093
0000c0 ce fd da 3c c1 25 a7 3e b8 ab 13 3f e6 dc 80 be
       0.026732352 0.3264599 0.57683897 -0.25168532
0000d0 48 15 7f bd 7e c3 23 3f be 23 e1 3d 61 fa 7a bd
       -0.062276155 0.6397017 0.109931454 -0.061273936
0000e0 7a 21 01 3d b4 23 fe 3e f9 15 d9 bc 88 de 9b bd
       0.031526066 0.49636614 -0.026499735 -0.07610804
0000f0 a3 98 32 3f bd 7f 6f be 8d 64 78 bc 2a a4 ee 3e
       0.69764155 -0.23388572 -0.015160692 0.46609622

weight f4 [32, 64]
000000 dd 77 b2 3d 08 8b d1 3d e8 9a 62 3c f5 19 99 bd
       0.08714268 0.10231596 0.013830878 -0.07475654
000010 a0 49 16 3e a6 96 e5 bc db d2 e8 3c 3e 79 ec be
       0.14676523 -0.028025936 0.028420856 -0.4618625
000020 53 42 c0 bd e5 c9 cb bc 8d d7 fb 3b 19 c4 5a be
       -0.0938765 -0.024876544 0.0076856078 -0.21363868
000030 88 97 80 3e 04 9e cb 3d 7a d0 ec bc 72 9f 4f 3e
       0.2511561 0.099422485 -0.028908003 0.20275667
000040 0f d4 93 bb 7f b1 e0 bc 7d a8 e9 3d d1 87 3c 3e
       -0.0045113633 -0.027428387 0.1140909 0.18411185
000050 0d b7 de 3d dd e3 92 3e f8 42 01 bf f8 40 48 3d
       0.10874758 0.2868947 -0.5049281 0.048890084
000060 03 3d ae 3d da a0 aa 3d 82 b4 84 3d 6f 27 3d be
       0.08507731 0.08331461 0.06479742 -0.18472074
000070 58 23 e4 bc 95 5c 2f 3e bb 66 a8 3d 1a 6f 26 3e
       -0.027848884 0.17125161 0.08222719 0.1625332
000080 4d 70 c3 bd 02 08 18 bd fc 04 20 be 16 88 9a 3c
       -0.09542904 -0.03711701 -0.15626901 0.018863719
000090 97 91 2a 3e c3 7e 40 bd df 86 b6 bd 36 a5 36 be
       0.166571 -0.04699589 -0.08912443 -0.1783646
0000a0 ff 15 1b bc 88 9b 1a 3d c6 23 4b be 78 c6 83 be
       -0.0094656935 0.037745982 -0.19837865 -0.25737357
0000b0 64 44 c0 be 62 9a 9d 3c 33 17 6b be f9 99 d5 be
       -0.37552178 0.019238655 -0.22958069 -0.41719034
0000c0 86 ae a4 3b f6 3b 74 bc 7e 14 90 be 11 7b 43 be
       0.0050256876 -0.014906874 -0.28140634 -0.19089915
0000d0 4f 27 19 be 4c de 82 be 07 a8 49 bf b1 cf 98 3a
       -0.14956401 -0.25560224 -0.78772014 0.0011658577
0000e0 82 55 d4 be 17 3f 59 3d 3a 34 a3 3c 9b 75 d8 3d
       -0.41471487 0.053038683 0.019922365 0.105693065
0000f0 a7 04 e7 be b4 9e 68 be 5d fc d5 3d e1 f7 bd be
       -0.45120737 -0.2271679 0.10448525 -0.3710318
000100 cb 64 45 3d cb 84 05 3e be ea 78 bd ca ff 2e be
       0.048191827 0.13038938 -0.060770743 -0.17089763
000110 79 90 0e bf 86 58 9d 3d 14 47 4c bb 71 6d 53 bd
       -0.556892 0.076829 -0.0031170296 -0.051618043
000120 94 68 ae 3d d7 5f 6b bc e7 e6 3a bf 78 b9 2c bd
       0.085160404 -0.014366112 -0.7300858 -0.042169064
000130 87 5c ae bc dd c5 5d 3d 45 ff 67 3d 40 da cd be
       -0.021284355 0.054143775 0.05663993 -0.40205574
000140 24 a6 ce be 33 6f e7 3d 7e 28 a3 3d b6 ef fe be
       -0.4036113 0.113005064 0.07966708 -0.4979226
000150 05 49 0a 3d 91 f1 e0 bb 8c 50 f3 bd 49 75 42 3e
       0.033761043 -0.0068647345 -0.118805975 0.18990053
000160 c0 05 36 be 3b 3b d9 3d 17 4a df 3d 0c 51 53 3d
       -0.17775631 0.106070004 0.109028034 0.051590964
000170 e0 5d e3 bb 9e 3e 0e be dd 92 c9 3d 91 ac f1 3b
       -0.006938681 -0.13891074 0.09842465 0.007375308
000180 d2 99 27 bf 0e 34 8c bd 7d 3f a8 bd 34 43 05 3e
       -0.65469086 -0.06845866 -0.082152344 0.13013917
000190 33 66 2a be b1 7a ac be 4b 57 d5 3a fd d4 ad bd
       -0.16640548 -0.33687356 0.0016276626 -0.0848789
0001a0 3a 37 b2 be dd 41 cc 3d 2f 91 ec be 90 9c 63 3e
       -0.3480776 0.099735 -0.46204516 0.22227693
0001b0 15 ee 3f 3e 32 78 a7 be 50 1d f5 be 82 62 3d 3d
       0.18743165 -0.3270889 -0.47873926 0.046236522
0001c0 83 aa 4f 3d 2c 0b 1f 3d ff ef 37 3e e0 40 d5 3b
       0.050699722 0.038829014 0.17962645 0.006507978
0001d0 aa 9d 0f 3e 06 0a c0 3d 51 8c 0c be 5b cd 1b be
       0.14024988 0.09376912 -0.13725401 -0.15215056
0001e0 c9 fd c2 3d 72 5e a1 be c7 b9 14 3e ef a9 5a 3d
       0.09521062 -0.3151737 0.14523993 0.053384718
0001f0 bd 27 33 3e be 61 4c be f9 b5 88 3d de 8c e1 3e
       0.17495628 -0.1995916 0.066753335 0.44052786
000200 a5 e9 76 3d 9b e9 ec bc dc 3e b4 bc fb ca f4 bd
       0.060281415 -0.028919986 -0.02200263 -0.11952778
000210 2d e6 1a bf 5f a0 7c bd 24 58 0b bd 9f 99 87 3d
       -0.6050747 -0.06167638 -0.034019604 0.06621098
000220 e4 0a 4c 3d 91 60 7a bc a3 0e f5 be 77 29 c6 3c
       0.049815074 -0.015281812 -0.4786273 0.024189694
000230 0d 57 df 3d d6 31 3f bc cc 3c 82 bc a7 73 71 3d
       0.109052755 -0.011669597 -0.01589813 0.058948185
000240 b0 69 a8 be 5a 48 01 3e d1 07 ae bd 18 51 d1 be
       -0.32893133 0.12625256 -0.084975846 -0.40882182
000250 d6 6f 6b 3d 0d 14 88 be 86 3b b8 be 21 51 1d 3e
       0.057479702 -0.26577798 -0.35982913 0.1536298
000260 d8 43 73 be b1 7c 17 3e a6 86 00 3e 9e be 12 3e
       -0.23756349 0.1479366 0.12551364 0.14330527
000270 3d 93 2a 3e 24 0a 54 be 71 9f 16 3e 39 ae 29 bf
       0.1665773 -0.20706993 0.1470926 -0.6628147
000280 7f b2 e2 be b5 8d e7 bb 6a d1 83 3d ad d3 85 3d
       -0.44276807 -0.0070664533 0.06436427 0.065345146
000290 67 98 49 be 55 24 8b be 7b cd f3 3d cf 1c 1e 3e
       -0.19687043 -0.27176157 0.11904427 0.15440677
0002a0 1a 85 c7 be c2 5b a3 3c 4d c4 02 bf ee 64 78 3d
       -0.38968736 0.019941214 -0.5108078 0.06064313
0002b0 ac a9 59 3e b5 d5 db be 3d 90 bd be b1 97 f7 bb
       0.21256131 -0.42936483 -0.37024108 -0.007555925
0002c0 2c f1 8f 3e 9f 71 d6 3d ec 8a 8b 3e 09 18 09 bc
       0.28113687 0.1047089 0.27254426 -0.008367547
0002d0 2b 5d c6 3d 9c 38 28 3e ad 09 0d be ed 5e 51 bd
       0.09685739 0.16427845 -0.13773222 -0.05111592
0002e0 c2 60 5d 3e 85 68 b1 be ef 71 80 bd 54 e2 a0 bd
       0.21618941 -0.34650055 -0.06271731 -0.07855669
0002f0 b4 02 89 3e 69 21 37 bc b3 dd 30 3c b0 e4 f4 3e
       0.26759875 -0.011177399 0.010795045 0.47830725
000300 45 da 28 bc 58 c9 f8 3c ff 19 bb bd 91 a4 4b bd
       -0.010305946 0.030369446 -0.09135818 -0.04971749
000310 ac 33 4b bd e8 9b d2 bd 4f 64 3e 3d 85 b5 8c bd
       -0.049609825 -0.10283643 0.04648238 -0.068705596
000320 0a 5b 6f bd b7 45 56 3d 83 bd 26 bd 32 40 0e be
       -0.05843643 0.05231258 -0.040708076 -0.13891676
000330 b4 99 94 bd 27 86 13 bc be 2b 7e 3d bb 74 1d bc
       -0.07255879 -0.009004152 0.062053435 -0.00961035
000340 e4 fb 4b 3d c0 4f 46 3d 41 fc 86 3c bb d1 1a be
       0.04980077 0.0484159 0.016477706 -0.15119068
000350 95 75 6e be ed 1f b1 bd 9f ad 4e bc 7c a6 0e 3e
       -0.23287041 -0.086486675 -0.012614637 0.13930696
000360 9e 3a 26 bd 45 34 99 bc fb a1 25 bc d2 2f 0f be
       -0.040583245 -0.018701682 -0.01010942 -0.13983086
000370 de a0 8a bd 65 e1 59 3d ab 4a 75 bd 44 79 b7 3c
       -0.06768964 0.05319347 -0.059885662 0.022396691
000380 f3 76 01 bd 32 02 1e bc 0a 2d 70 bd a0 b4 2b be
       -0.03160758 -0.009644078 -0.058636703 -0.16768122
000390 d5 8a 77 bc 4c 02 91 bd b2 f8 53 3d 82 fe 5e 3d
       -0.015108784 -0.07080516 0.051750846 0.054441936
0003a0 77 1a 16 be ba bf 24 bd 03 a0 03 3c 6f 42 14 be
       -0.14658533 -0.040221907 0.008033755 -0.14478467
0003b0 cb 2c 35 be 7d 79 24 be 9a 27 19 be 63 86 34 be
       -0.17692868 -0.16061969 -0.14956513 -0.1762939
0003c0 e0 3f 11 be c1 e4 35 bd cb 6f 02 bd 7c 77 d2 bd
       -0.14184523 -0.04440761 -0.031844895 -0.10276696
0003d0 4c 75 d0 bd 2b 08 70 be 2b b9 38 bd 05 4a 57 3c
       -0.101786226 -0.23440616 -0.045098465 0.013140206
0003e0 e7 73 84 bd 1b fe 2c bd 25 43 78 3d 75 d3 c7 3d
       -0.06467419 -0.04223452 0.06061091 0.09757129
0003f0 b6 eb 03 be 73 31 91 3d 48 d5 21 bc 2f fa e6 bd
       -0.12882885 0.0708951 -0.00987751 -0.112781875

bias f4 [32]
000000 a3 b8 ff 3e 9c 17 84 3f 31 6b 87 3f f6 8f 1b bd
       0.49945554 1.0319705 1.0579587 -0.03797909
000010 7d 82 de bd 8e 5f 26 3f 06 21 08 3f 12 d9 5a 3f
       -0.108647324 0.64989555 0.5317539 0.85487473
000020 31 16 5f 3c ab 09 88 3e 1b 1f f8 3e ce a0 b9 be
       0.013616131 0.26569876 0.48461232 -0.36255497
000030 d2 98 da 3e 46 17 37 be e5 8d 8d be e9 5d ca 3e
       0.42694718 -0.17879972 -0.2764732 0.39524773
000040 f6 0b 8e be e1 b9 c0 bd 5c 2b 97 be cf 48 59 be
       -0.277435 -0.094104536 -0.29525268 -0.2121918
000050 70 a8 87 3c 68 d9 01 3f 32 37 86 be 7f 70 ce bd
       0.01655981 0.5072236 -0.26213986 -0.10080051
000060 d5 cf d5 3e 87 06 fa 3c c3 01 71 be cd 38 d2 bd
       0.41760126 0.03052069 -0.23535828 -0.1026474
000070 c7 76 38 3f 98 a6 0c 3e b9 5c 6b 3f d9 ab 3e 3f
       0.7205624 0.13735425 0.9193836 0.7448097

weight f4 [1, 32]
000000 ad be a7 bd 84 f2 6a 3e b3 a9 75 3e dc 47 82 bc
       -0.081906654 0.22944075 0.23990516 -0.015903406
000010 0f 08 2e 3c 16 81 2f 3e 93 44 db bd 7d 91 d0 3e
       0.0106220385 0.17139086 -0.10706439 0.40736
000020 a1 5b 06 3c 86 15 43 3e 17 99 d9 bd 48 64 ae 3c
       0.008200557 0.1905118 -0.10624903 0.021288052
000030 ce bc 0c be 70 34 dc 3d 3a 8c b9 bb cf 9f 05 be
       -0.13743898 0.10752189 -0.0056624683 -0.13049243
000040 ce 14 fd 3c 4a a2 62 3e c7 de be bd 0f eb 16 3d
       0.03089371 0.22132221 -0.09319835 0.036845263
000050 f3 27 a6 be 1c 47 c6 bd e5 bd 41 3d e9 78 d8 bc
       -0.32452354 -0.09681532 0.04730024 -0.026424842
000060 7a 96 0a be 29 d0 8b bd 64 44 c5 3d 9b 57 66 3d
       -0.13533965 -0.06826813 0.09632185 0.05623589
000070 dc ab 4c be 3d d8 10 3e b7 44 c4 3e 36 8d 35 be
       -0.19987434 0.14144988 0.38333675 -0.17729649
