model_housing_params.pkl (torch, 8120 bytes, 3 tensors)

hidden.weight f4 [100, 13]
0	0xbf2edd68	-0.6830659
1	0xbe810eec	-0.25206697
2	0xbe1bd018	-0.152161
3	0xbf958467	-1.1681031
4	0xbe9b05b1	-0.3027778
5	0x3f95f9ee	1.1716897
6	0xbe0a0bce	-0.13481066
7	0xbe7da2cf	-0.24769138
8	0xbd357809	-0.044303928
9	0x3d88a35e	0.06671785
10	0xbea2c207	-0.31788656
11	0x3bee91c3	0.0072805597
12	0xbf30c3ab	-0.69048566
13	0xbd035368	-0.032061964
14	0xbd16d9a4	-0.036828652
15	0xbd73d2c8	-0.05952719
16	0xbdd45fb2	-0.10369815
17	0xbd72e08c	-0.059296176
18	0x3d0d1100	0.03444004
19	0x3ca11aa0	0.019666016
20	0xbe71ce7f	-0.23613928
21	0x3e214e4c	0.15752524
22	0xbd7e5d20	-0.06210053
23	0xbe004730	-0.12527156
24	0xbd7a7804	-0.061149612
25	0x3cabb820	0.020961821
26	0x3da9d0ac	0.08291754
27	0x3e013322	0.12617162
28	0xbdb2e9f6	-0.08736031
29	0x3db49b74	0.08818713
30	0xbe6df18e	-0.23236677
31	0xbe64dcf1	-0.22349907
32	0x3d16bfa8	0.03680387
33	0xbe6809c0	-0.2265997
34	0x3dafee58	0.08590382
35	0xbdc8cfea	-0.098052815
36	0xbe059b94	-0.1304763
37	0xbe2a5d66	-0.16637191
38	0x3d7d1a98	0.06179294
39	0x3e293636	0.16524586
40	0xbd9f60a4	-0.077821046
41	0x3d6aef50	0.057357132
42	0xbe4fd590	-0.20296311
43	0x3e0ffe5e	0.14061877
44	0xbc861e30	-0.016371816
45	0x3e1b9ec0	0.15197277
46	0x3e542a54	0.20719272
47	0xbde1adc2	-0.1101947
48	0xbe25c13d	-0.16186996
49	0x3e3343fa	0.175064
50	0xbd4a4800	-0.04938507
51	0x3db93968	0.090441525
52	0xbf50a3d3	-0.81499976
53	0xbe09122c	-0.13385838
54	0xbf0dc4cd	-0.5537842
55	0xc0f04343	-7.5082107
56	0xbe412cd9	-0.18864764
57	0x3f9cd910	1.2253742
58	0xbd9a4a03	-0.07533648
59	0x3e4a03fd	0.19728084
60	0xbef2a557	-0.4739177
61	0x3dbbeaa4	0.091756135
62	0x3e96e3ad	0.29470578
63	0xbd96b88c	-0.07359418
64	0xbe569bf1	-0.20957924
65	0x3f5a0a6c	0.8517215
66	0xbf540333	-0.8281738
67	0xbec57096	-0.3856246
68	0xc0ccdd1b	-6.4019904
69	0x3fc1b39d	1.5132939
70	0x3f72eb40	0.94890213
71	0xbf31fc3c	-0.69525504
72	0x3edd4ad4	0.43221152
73	0x3ee1c3b6	0.44094628
74	0x3e691c79	0.22764768
75	0xbe5d5e71	-0.21618058
76	0xbe1d4f7a	-0.15362349
77	0xbe13eb73	-0.14445285
78	0x3f37dd20	0.71821785
79	0xbe4a0526	-0.19728526
80	0xbd61df56	-0.05514463
81	0xc0d90ba8	-6.782673
82	0xbf0288f6	-0.50990236
83	0xbf7e8a8e	-0.9943017
84	0xbec2a5ce	-0.38017124
85	0xbe1cabd1	-0.15299918
86	0x3eaf0aea	0.34188014
87	0xbd31df25	-0.043425698
88	0x3d36fe2a	0.044675983
89	0x3e1762d1	0.14783789
90	0x3f0ac73f	0.54210275
91	0xc08b4966	-4.35271
92	0x3f158648	0.5840802
93	0x3f12997f	0.57265466
94	0xbf1ab337	-0.6042971
95	0xbce31a37	-0.027722461
96	0xbeec4b62	-0.46151263
97	0xbeef9618	-0.467942
98	0x3ec20160	0.37891674
99	0x3f361ef9	0.7114101
100	0xbe8c1ecb	-0.27367243
101	0xbec2b724	-0.3803035
102	0x3e6e1662	0.23250726
103	0x3f867820	1.0505409
104	0x3d9aa358	0.075506866
105	0xbe9fa859	-0.31183127
106	0x3e6f7cf5	0.23387511
107	0xbe6ec785	-0.23318298
108	0x3d4f83f9	0.05066297
109	0x3e64792b	0.22311847
110	0xbd8ad401	-0.06778718
111	0x3d87df00	0.06634331
112	0xbe3d80e4	-0.18506199
113	0xbe39fc1f	-0.18162583
114	0xbc89ed15	-0.016836682
115	0x3d786437	0.060642447
116	0xbe858e8f	-0.26085326
117	0x3e89d59b	0.2692078
118	0xbdb17498	-0.086648166
119	0x3e025076	0.12726006
120	0xc08aa9b7	-4.333217
121	0xbf93a239	-1.1533881
122	0xbebefa86	-0.3730051
123	0xbdc286b1	-0.094983466
124	0xbfb0d435	-1.381476
125	0x3c659272	0.014011966
126	0x3e1131a5	0.14179094
127	0xbe18d6a7	-0.14925633
128	0xbe451780	-0.19247246
129	0xbf228e49	-0.6349836
130	0x3f97cf3f	1.1860121
131	0x3e9d4910	0.30719805
132	0xbdee3f53	-0.11633172
133	0x412cd327	10.801551
134	0x3f11f189	0.5700918
135	0x3fb94c71	1.4476453
136	0x3e79761a	0.24361458
137	0xc04b3e12	-3.1756635
138	0x3e89fdaa	0.26951343
139	0xbe8547c9	-0.2603133
140	0xbf864527	-1.0489854
141	0x3e0539e4	0.13010365
142	0xbe324411	-0.17408778
143	0x3f9eee0c	1.2416396
144	0xbe05300f	-0.13006614
145	0x3dba1ee9	0.09087927
146	0x3e0b6ae4	0.13614994
147	0x3d5ff22d	0.054674316
148	0xbe518bed	-0.20463534
149	0xbe7d2037	-0.2471932
150	0x3de66396	0.11249463
151	0xbe3654d8	-0.17805803
152	0xbde3e985	-0.11128525
153	0xbda5c065	-0.08093337
154	0xbe576be2	-0.21037248
155	0x3f0b795e	0.54482067
156	0xbf8042f9	-1.0020438
157	0x3f2e9b39	0.682056
158	0xbf89edfd	-1.0775753
159	0x4082043b	4.0630164
160	0xbd5d3aee	-0.054011278
161	0x3d2f5f35	0.042815406
162	0x3edf3014	0.43591368
163	0xbf1895fa	-0.59603846
164	0x3ec5c864	0.38629448
165	0xbe9ebcf0	-0.31003523
166	0xbef042d7	-0.46925995
167	0x3d2289b1	0.039682094
168	0xbf87cb58	-1.060893
169	0x3f6ef771	0.93346316
170	0xbe3f0f76	-0.18658242
171	0x3ea934e2	0.3304816
172	0x400d6e4c	2.209857
173	0x3f83c2a8	1.0293779
174	0xc01b4891	-2.426304
175	0x3e30ced3	0.17266397
176	0x3ccd974a	0.025096554
177	0x3ea25476	0.31705064
178	0xbe80cc2f	-0.2515578
179	0x3f162f6e	0.5866612
180	0x3e514883	0.20437817
181	0xbfb9d578	-1.451827
182	0xbae6e28a	-0.0017615121
183	0xbdd93be4	-0.10607126
184	0x3d496785	0.04917099
185	0xc03f362b	-2.9876812
186	0x3e9c58c9	0.30536488
187	0xbfca52b0	-1.5806484
188	0xbf054096	-0.52051675
189	0x3ecfdc2c	0.40597665
190	0xbd29e9e7	-0.041482832
191	0x3d6ceaa4	0.05784096
192	0xbded2c8b	-0.115807615
193	0x3d9f6ab5	0.077840246
194	0x3f21cf42	0.63206875
195	0xbdc9e1d0	-0.098575234
196	0x3d6706f0	0.0564031
197	0xbca3dfb0	-0.020004123
198	0xbe547216	-0.20746645
199	0xbcf79168	-0.030220702
200	0x3d908558	0.07056683
201	0xbe8a20a6	-0.26978034
202	0xbd7c9a90	-0.06167084
203	0x3e463f44	0.19360071
204	0xbe8620c0	-0.2619686
205	0x3e81a8bf	0.25324056
206	0x3d8de7b4	0.069289595
207	0x3d761c10	0.060085356
208	0xbf1de77c	-0.6168134
209	0xbe7de1df	-0.24793194
210	0x3ccb558e	0.02482107
211	0x4099a9fd	4.8020005
212	0x3e2fe96f	0.17178892
213	0xbf61ce99	-0.8820587
214	0xbeffcf50	-0.49962854
215	0xbecb5fdd	-0.39721575
216	0xbec51830	-0.38495016
217	0x3dde5ccc	0.10857543
218	0x3e6f17bf	0.23348902
219	0xbd8cdecb	-0.06878432
220	0x3efc8142	0.49317366
221	0xbf484036	-0.7822298
222	0x3c8aa1b7	0.016922815
223	0xbc9cb16b	-0.019127568
224	0xc11cbad8	-9.795616
225	0xbe3902ca	-0.1806747
226	0x3f73d76c	0.9525058
227	0x3c5ff88a	0.013670096
228	0x3f33cf93	0.7023861
229	0xbce289a1	-0.027653517
230	0x3e137eba	0.14403811
231	0x3ecac6b9	0.39604738
232	0xbe1fee64	-0.15618283
233	0xbe6e89cd	-0.23294754
234	0x3d302b68	0.043010145
235	0x3d4ecf68	0.050490767
236	0xbc9fec90	-0.019521981
237	0xbdc549da	-0.09633227
238	0xbe19e9f3	-0.15030651
239	0xbdfdd2f8	-0.12393755
240	0xbe61399c	-0.21994632
241	0x3e31c032	0.17358473
242	0xbd98e674	-0.074658304
243	0xbd00de34	-0.03146191
244	0x3d9e52a0	0.07730603
245	0xbe2863c8	-0.16444314
246	0xbd6a27d0	-0.057166874
247	0x3ccc08af	0.024906484
248	0xbc994e70	-0.01871416
249	0xbb3951f3	-0.0028277605
250	0x3e40ba67	0.18821107
251	0x3d96a7e8	0.07356244
252	0xbc561a71	-0.013067828
253	0xbe93b45c	-0.2884854
254	0x3dc1e468	0.09467393
255	0xbdc5e52d	-0.096628524

hidden.bias f4 [100]
0	0x3f0641a1	0.5244389
1	0x3d9e71e0	0.07736564
2	0xbe56d653	-0.20980196
3	0xbd4bfd08	-0.049801856
4	0x3f50d096	0.81568277
5	0xbf2c40c9	-0.67286354
6	0xbf1d3662	-0.61411107
7	0x3dc94895	0.09828297
8	0x3da05b3f	0.07829904
9	0xbe9dc552	-0.30814606
10	0xbf0ee2c1	-0.5581475
11	0xbec7a855	-0.38995615
12	0x3e08f007	0.13372813
13	0xbf1dec3a	-0.6168858
14	0xbf4d8262	-0.80277073
15	0x3d2f7850	0.04283935
16	0xbcabd35a	-0.020974804
17	0x3f0a5a35	0.54043895
18	0x3c0a38e0	0.008436412
19	0x3e2964f4	0.16542417
20	0xbe810ac2	-0.2520352
21	0xbe8b39a9	-0.2719243
22	0x3f2886da	0.6583077
23	0x3d96f1ac	0.07370314
24	0x3d67ab55	0.05655988
25	0x3ef5625f	0.47926614
26	0xbe014b01	-0.12626268
27	0x3f8f382f	1.1189021
28	0x3e2ce220	0.16883135
29	0x3ed64691	0.41850713
30	0xbe74ab24	-0.2389341
31	0x3f0f42f3	0.5596153
32	0xbf616141	-0.8803902
33	0xbde7bdb4	-0.1131548
34	0xbdaeabc4	-0.085288554
35	0xbeff5306	-0.4986803
36	0x3e434e56	0.19072852
37	0x3e06e633	0.13173752
38	0xbe4e0236	-0.20118031
39	0x3deb0ef2	0.1147746
40	0xbec626e6	-0.38701552
41	0xbf8b59a4	-1.0886731
42	0xbe33eb34	-0.17570192
43	0x3f5d9999	0.86562496
44	0xbe5359c4	-0.20639712
45	0x3d96b188	0.0735808
46	0x3e18b8ca	0.14914241
47	0x3d9b62ad	0.0758718
48	0xbe9c15bf	-0.3048534
49	0x3f6c1b35	0.92229015
50	0xbd8561a0	-0.06512761
51	0x3e60b198	0.21942747
52	0x3f0ca98b	0.549462
53	0xbe8764ea	-0.2644418
54	0xbf25f1f2	-0.64822304
55	0xbebdb26d	-0.3705019
56	0xbf3f9374	-0.7483437
57	0x3e0ea315	0.13929398
58	0xbf2828f4	-0.6568749
59	0x3ec67b74	0.38766062
60	0x3eb2d3ed	0.34927312
61	0xbdd48bb8	-0.10378212
62	0x3d29c9f7	0.041452374
63	0xbed52850	-0.41632318
64	0x3eca7a2a	0.3954633
65	0xbec47906	-0.38373584
66	0x3f2fff4b	0.6874892
67	0xbce979f2	-0.02850053
68	0x3ee932e4	0.4554664
69	0xbe49ca7a	-0.19706145
70	0xbe05eaaf	-0.13077806
71	0x3f347158	0.7048545
72	0xbed4a45e	-0.41531652
73	0x3eb163b8	0.34646392
74	0x3ede49cb	0.43415675
75	0xbe897064	-0.2684356
76	0x3ecdc7c7	0.4019148
77	0xbea67f3f	-0.32518956
78	0x3d2282c0	0.039675474
79	0xbcf10fce	-0.029426482
80	0x3e3c1262	0.18366387
81	0xbe757fc9	-0.23974527
82	0x3dbc4879	0.091935106
83	0x3f153cc0	0.5829582
84	0xbde95ec7	-0.113950305
85	0xbe42af8b	-0.19012277
86	0x3f10fbe3	0.5663435
87	0xbf83b4bd	-1.0289532
88	0x3d577316	0.05259999
89	0xbe8fbcce	-0.28073734
90	0x3feda761	1.8566705
91	0x3dc8096c	0.09767422
92	0x3ecf641c	0.40506065
93	0xbd8008be	-0.062516674
94	0x3cb7b01e	0.022422846
95	0xbe8c8abc	-0.27449596
96	0x3d15e647	0.036596563
97	0x3e56a814	0.20962554
98	0x3e7037da	0.23458806
99	0x3f0e1216	0.55496347

predict.weight f4 [1, 100]
0	0x3c4d6787	0.01253689
1	0xbdc95d70	-0.09832275
2	0xbd72e7fa	-0.05930326
3	0xbd993080	-0.07479954
4	0x3cb28c93	0.021795547
5	0xbdfa1447	-0.12210899
6	0xbd78e52c	-0.06076543
7	0xbe456b87	-0.192793
8	0xbbc32834	-0.0059557203
9	0x3d8038e2	0.062608495
10	0xbe8ab5a3	-0.27091703
11	0x3ec405fa	0.3828581
12	0xbe9ae8ad	-0.30255643
13	0xbe963cfe	-0.29343408
14	0xbd6bb191	-0.057542387
15	0xbd439063	-0.04774512
16	0xbd2a1e16	-0.0415326
17	0x3d2412c6	0.040056966
18	0xbd36e870	-0.044655263
19	0x3c08b2bb	0.008343394
20	0x3effeaae	0.49983734
21	0xbc92e780	-0.017932653
22	0x3ea42e9c	0.3206681
23	0x3bcad3af	0.0061897854
24	0xbce840c5	-0.028351197
25	0x3cb9cc14	0.02268032
26	0x3d8782c7	0.06616741
27	0x3eb09ef9	0.34496287
28	0x3e1d50bb	0.15362827
29	0x3f26f8e4	0.65223527
30	0xbd20727b	-0.039171677
31	0x3e1c3603	0.15254979
32	0xbc0a5a83	-0.008444431
33	0xbd5bf5ba	-0.05370114
34	0x3f1fd9ab	0.6244151
35	0xbbf646b2	-0.0075157518
36	0xbb5b56c0	-0.0033468455
37	0x3cc8e420	0.024522841
38	0x3c1d0e04	0.009585861
39	0x3e539ee0	0.20666075
40	0x3e95a019	0.29223707
41	0xbe4919e9	-0.1963879
42	0xbc241000	-0.01001358
43	0x3cd5ce15	0.026099244
44	0x3e12e301	0.14344408
45	0xbd1230d6	-0.035691105
46	0x3d932043	0.07183888
47	0xbebb181a	-0.36541826
48	0xbd061fe7	-0.03274527
49	0x3c6b2bc9	0.014353701
50	0xbce3d760	-0.02781266
51	0xbcb5ff4f	-0.022216467
52	0x3ce42030	0.02784738
53	0x3bf99e31	0.007617735
54	0xbc934c1e	-0.017980631
55	0xbe04d530	-0.1297195
56	0xbcc2c4da	-0.023775507
57	0x3d11a7cc	0.035560414
58	0xbc49341e	-0.012280492
59	0x3e64779a	0.2231125
60	0x3e940e0b	0.28916964
61	0xbbe84b60	-0.0070890635
62	0x3e2d3f5b	0.169187
63	0xbc765856	-0.015035709
64	0x3d5ede59	0.054411266
65	0xbc4e3956	-0.012586912
66	0x3dcc292d	0.09968791
67	0xbeb99742	-0.36248213
68	0xbebdeab7	-0.37093136
69	0xbcd0ff0c	-0.02551224
70	0x3cf0b184	0.029381521
71	0x3d835edb	0.064145766
72	0xbeb385f4	-0.35063136
73	0x3ebc1324	0.36733353
74	0x3c23aa90	0.009989396
75	0x3c9f5650	0.019450337
76	0x3d8a4973	0.067522906
77	0xbec50703	-0.38481912
78	0xbda5359b	-0.08066865
79	0xbd0d6cb1	-0.034527484
80	0xbd2499aa	-0.040185608
81	0xbd194ab4	-0.037424758
82	0xbc99a7cb	-0.018756768
83	0x3dc9347c	0.09824464
84	0xbcf3e849	-0.029773848
85	0x3cb95e34	0.022627927
86	0x3ef79106	0.48352832
87	0xbdc2b293	-0.095067166
88	0x3c054218	0.008133434
89	0xbf9449f4	-1.1585069
90	0x3f5da692	0.8658229
91	0x3d2c3662	0.04204405
92	0x3d717d44	0.058957353
93	0x3cee8389	0.029115455
94	0x3d10eabc	0.03538011
95	0x3ce387fd	0.027774805
96	0x3e4bb533	0.19893341
97	0xbd1e88fa	-0.03870485
98	0xbd87ffb4	-0.066405684
99	0x3d61b00a	0.055099525
