model_food.pkl (torch, 6952 bytes, 3 tensors)

weight f4 [100, 8]
0	0xbe525190	-0.20538926
1	0xbddcb284	-0.10776237
2	0x3d7b0d20	0.061291814
3	0x3e02332e	0.12714836
4	0xbdbee9b8	-0.09321922
5	0x3d6950b0	0.056961715
6	0xbe89efc8	-0.2694075
7	0x3e3c15b6	0.18367657
8	0xbe243b19	-0.16038169
9	0xbe8fde9a	-0.2809952
10	0xbe471f1b	-0.1944546
11	0x3e30d94a	0.17270389
12	0xbe9da786	-0.30791873
13	0xbe1e5d1b	-0.15465204
14	0xbea1997e	-0.31562418
15	0x3d52ba10	0.051446974
16	0xbdbbec18	-0.09175891
17	0x3dd2464c	0.10267314
18	0xbda40ef4	-0.080106646
19	0x3dd06500	0.10175514
20	0x3b78c400	0.0037958622
21	0xbe8a9d31	-0.27073053
22	0xbe61d1ab	-0.22052638
23	0x3e67c43a	0.22633448
24	0xbc164aa0	-0.009173065
25	0xbd8c8a20	-0.06862283
26	0xbdb9f7bc	-0.09080455
27	0x3ea37331	0.31923822
28	0xbe5e7fc8	-0.21728432
29	0xbe853986	-0.2602045
30	0x3dc29d80	0.09502697
31	0x3d623760	0.05522859
32	0x3e4401c8	0.19141304
33	0xbc915c54	-0.01774422
34	0xbdc4e643	-0.096142314
35	0x3e7f0732	0.24905089
36	0xbe3852ce	-0.18000337
37	0x3df3f4b0	0.11911905
38	0x3e12a8bc	0.1432218
39	0xbe4cb1cc	-0.19989699
40	0x3d9667ea	0.07344039
41	0x3cc45f2b	0.02397116
42	0x3e191b39	0.14951791
43	0xbe37a59a	-0.17934266
44	0xbe597b3c	-0.21238416
45	0x3e1937d9	0.1496271
46	0xbe8736bd	-0.2640895
47	0x3e9b9900	0.30390167
48	0x3ea659af	0.32490298
49	0x3e8c75c6	0.27433604
50	0x3e4b269f	0.19838952
51	0xbbe1776d	-0.0068806917
52	0x3d0c7ec3	0.034300577
53	0x3e283344	0.16425806
54	0x3e67f5cb	0.22652356
55	0xbdef55e9	-0.11686308
56	0x3c885ebe	0.01664674
57	0x3bfe8112	0.007766851
58	0xbe1320f5	-0.14368041
59	0x3d8c7a35	0.06859247
60	0x3e2c8e12	0.1685107
61	0x3eb47e2a	0.35252506
62	0xbea5fd74	-0.32419932
63	0x3d25debb	0.040495615
64	0xbe5ee54e	-0.2176716
65	0x3df2cb88	0.11855227
66	0x3cbf4610	0.023348838
67	0xbe0b1799	-0.1358322
68	0xbe3222ff	-0.17396162
69	0xbc874350	-0.01651159
70	0xbe1c7780	-0.1527996
71	0xbd968184	-0.07348922
72	0x3e4482e1	0.19190551
73	0x3e98c277	0.29835865
74	0x3dc4a86e	0.09602438
75	0xbe3dfe7b	-0.18554108
76	0x3e364fb6	0.17803845
77	0xbe9324f8	-0.28739142
78	0x3e87df6c	0.26537645
79	0xbeac8dd1	-0.33701947
80	0x3e395c14	0.18101531
81	0x3d1863cd	0.037204552
82	0x3e2904e1	0.16505767
83	0xbe9eb337	-0.30996105
84	0xbe99c928	-0.30036283
85	0x3d3c32d5	0.045946915
86	0x3e83ae38	0.25718856
87	0x3eb6903b	0.35656914
88	0x3e4d7a95	0.20066293
89	0xbd1178d7	-0.035515632
90	0xbe03edf0	-0.12883735
91	0xbe2760de	-0.16345546
92	0xbe954ce9	-0.2916024
93	0xbd6ce456	-0.057834946
94	0x3e8520d3	0.26001605
95	0xbe874b33	-0.2642456
96	0xbea5f440	-0.3241291
97	0xbd843428	-0.064552605
98	0xbe09803d	-0.13427825
99	0xbdff29ba	-0.124591306
100	0x3e8c11e3	0.27357396
101	0x3d97ad70	0.074061275
102	0xbe8ad828	-0.2711804
103	0xbde884a6	-0.11353426
104	0xbe076854	-0.13223392
105	0x3eb0eb81	0.34554675
106	0x3e9eb1ef	0.30995128
107	0xbdad13c8	-0.084510386
108	0xbdd6dc22	-0.10491206
109	0x3c14a5a0	0.009072691
110	0x3d9dde24	0.077083856
111	0xbe30dd19	-0.17271842
112	0xbe7240e6	-0.2365757
113	0xbd94cc44	-0.07265523
114	0xbe749faa	-0.23889032
115	0xbe43f630	-0.19136882
116	0xbe4ba211	-0.19886042
117	0x3e99e74b	0.30059275
118	0x3d3ce4b0	0.04611653
119	0x3e20e0e2	0.15710786
120	0x3eab2bbd	0.33431807
121	0xbe85bc35	-0.26120153
122	0xbd689ec0	-0.05679202
123	0xbe2501eb	-0.16114013
124	0x3e312a91	0.17301394
125	0x3d1d2b3c	0.03837131
126	0x3e6f3817	0.2336124
127	0xbcf256ee	-0.029582467
128	0xbe7b2970	-0.24527526
129	0x3ea6673b	0.32500634
130	0x3e70fd86	0.23534212
131	0xbe7a5940	-0.24448109
132	0x3e5a1eae	0.21300766
133	0x3e327ff2	0.1743162
134	0x3d587fd0	0.052856266
135	0x3e27ca72	0.1638582
136	0xbe5f61a3	-0.21814589
137	0x3e523686	0.20528612
138	0x3a139e00	0.0005631149
139	0x3df43d68	0.11925775
140	0x3cd2efd0	0.025749117
141	0xbe0e80be	-0.13916299
142	0x3d74dff0	0.059783876
143	0xbdebebfa	-0.11519618
144	0x3dd55b79	0.10417838
145	0xbd0d44d9	-0.034489486
146	0x3e952237	0.29127666
147	0xbe0a72b4	-0.13520318
148	0x3d9b4e7b	0.07583328
149	0xbc1aded6	-0.009452542
150	0xbd424223	-0.047426354
151	0x3e6b2a7c	0.22965425
152	0xbe25a392	-0.16175678
153	0xbeaf6cff	-0.34262845
154	0x3dc9c178	0.09851354
155	0x3e03ae68	0.128595
156	0xbc6f3380	-0.014599681
157	0x3e80ff23	0.25194654
158	0x3e83bac9	0.25728443
159	0xbe1344ca	-0.1438171
160	0x3da2162c	0.07914385
161	0xbe8c7d07	-0.27439138
162	0x3af0852f	0.0018350239
163	0xbe755708	-0.23958981
164	0x3e5be5e0	0.21474409
165	0x3e22a422	0.15882924
166	0xbcbe2255	-0.02320973
167	0xbdab553d	-0.08365867
168	0xbbecedc0	-0.0072304904
169	0x3dd088b4	0.10182324
170	0x3e5636be	0.2091932
171	0x3e77866e	0.24172375
172	0x3e25879a	0.16165009
173	0xbc95d300	-0.01828909
174	0x3e81ddf3	0.25364646
175	0xbda576d4	-0.08079305
176	0x3e8c3524	0.27384293
177	0x3dd81c0f	0.10552227
178	0x3e20edc7	0.15715705
179	0x3e355e1b	0.1771168
180	0x3ea2e7e4	0.31817544
181	0xbbe204d6	-0.006897549
182	0xbeb4723c	-0.35243404
183	0x3e119a6b	0.14219062
184	0x3e2b00c9	0.16699518
185	0x3d9da96a	0.07698329
186	0x3ea32198	0.31861567
187	0x3e75549f	0.23958062
188	0xbc14b7f1	-0.009077058
189	0xbe65d484	-0.2244435
190	0x3e419c8b	0.18907373
191	0x3e714681	0.23562051
192	0xbb5f2880	-0.003405124
193	0x3e1ea4b2	0.15492514
194	0x3ea034c1	0.31290248
195	0x3dc224a8	0.09479648
196	0x3e2da14a	0.16956058
197	0xbe0db7c5	-0.13839634
198	0xbe9f3ce8	-0.31101155
199	0xbd940300	-0.07227135
200	0x3e56d22f	0.20978616
201	0xbe606077	-0.21911798
202	0x3e41f22a	0.18940035
203	0x3e80142a	0.25015384
204	0x3dd77d66	0.10521965
205	0xbe0c1e66	-0.13683471
206	0xbe3e200e	-0.18566915
207	0x3ea02ab3	0.31282577
208	0x3e7893a0	0.24275064
209	0xbe06f315	-0.13178666
210	0xbe0dde4b	-0.1385433
211	0x3e73d146	0.238103
212	0xbe93d444	-0.28872883
213	0x3e597778	0.2123698
214	0x3c91c666	0.017794799
215	0xbea80aa7	-0.32820627
216	0xbda75604	-0.08170703
217	0xbe887dd2	-0.26658493
218	0x3e842439	0.25808886
219	0xbe9d1da4	-0.30686677
220	0xbe8ac385	-0.27102295
221	0x3e84438d	0.25832787
222	0xbe99f075	-0.30066267
223	0xbe8b6603	-0.27226266
224	0x3e4d5ec6	0.20055684
225	0xbe1e282f	-0.15445016
226	0xbe170d21	-0.14751102
227	0x3e3d5681	0.1849003
228	0xbe6979e4	-0.22800404
229	0x3e589027	0.2114874
230	0x3e605819	0.21908607
231	0x3e9d8914	0.30768645
232	0xbddab6e2	-0.106794134
233	0xbe640cb6	-0.22270474
234	0x3dca0b0c	0.09865388
235	0xbe8d4560	-0.2759199
236	0x3e0cabde	0.13737437
237	0x3c168240	0.009186327
238	0xbea15498	-0.31509852
239	0xbde05b2a	-0.10954888
240	0x3ea7c360	0.32766247
241	0xbe163204	-0.14667517
242	0xbeaaa668	-0.33330083
243	0x3e713871	0.23556687
244	0xbddff15f	-0.1093471
245	0x3e4bf50d	0.19917698
246	0x3e2a355f	0.16621922
247	0x3df66b79	0.120322175
248	0x3e8e6f2a	0.27819186
249	0x3e4f07c4	0.20217806
250	0xbe1d07f7	-0.1533507
251	0xbd759205	-0.05995371
252	0x3ea39e66	0.31956786
253	0xbdc135d0	-0.09434092
254	0x3e13bad2	0.14426735
255	0xbe961238	-0.29310775

bias f4 [100]
0	0xbe657961	-0.22409584
1	0x3e7a12ae	0.24421188
2	0x3e98802f	0.29785296
3	0x3e7e900a	0.24859634
4	0xbe0778b2	-0.13229635
5	0x3e6b400f	0.22973655
6	0xbbfe0d47	-0.0077530476
7	0xbe9d637c	-0.30739963
8	0x3e9eb47d	0.30997077
9	0x3d8dc871	0.06922997
10	0x3df1f596	0.1181442
11	0x3d302cb0	0.043011367
12	0x3e845ac9	0.25850514
13	0xbe8b3597	-0.27189323
14	0x3e48994e	0.19589731
15	0xbdaca862	-0.08430554
16	0xbeb2cf7e	-0.3492393
17	0xbe8d74fb	-0.27628312
18	0x3e542dd1	0.20720603
19	0xbe8fb435	-0.28067175
20	0xbe850ab2	-0.25984722
21	0xbe9b606a	-0.30346996
22	0xbe127df4	-0.1430586
23	0xbdf36a9a	-0.11885567
24	0x3e093e86	0.13402757
25	0xbea1d78c	-0.31609762
26	0xbe406f41	-0.1879244
27	0xbe0fb675	-0.14034446
28	0xbe092c61	-0.13395835
29	0x3e40fec2	0.18847182
30	0x3e680a6d	0.22660227
31	0xbe420a61	-0.18949272
32	0x3e8e3ca0	0.27780628
33	0x3eb70727	0.35747644
34	0xbd1062a0	-0.035250306
35	0xbe9b0c60	-0.3028288
36	0xbd334829	-0.04376999
37	0xbe601dc4	-0.21886355
38	0xbe798e73	-0.24370746
39	0xbd902030	-0.07037389
40	0x3e99de1b	0.30052266
41	0xbe8f9c75	-0.28049055
42	0x3e25598a	0.16147438
43	0x3e3d1502	0.18465045
44	0xbe1865cc	-0.14882582
45	0xbe32e6d6	-0.1747087
46	0xbe9be206	-0.3044588
47	0xbd8e1ac8	-0.06938702
48	0x3e7e4e52	0.24834564
49	0x3e0dc1c3	0.13843445
50	0xbdfc5cd6	-0.123223945
51	0xbe49e2a5	-0.19715364
52	0xbeaba8b1	-0.3352714
53	0xbeb0e122	-0.34546763
54	0xbc86ed30	-0.016470522
55	0xbe804de4	-0.25059426
56	0xbdd7dc6c	-0.10540089
57	0x3e4d5dc1	0.20055296
58	0xbcfe5b30	-0.031049341
59	0x3dc9ca2c	0.09853014
60	0x3ba44600	0.0050132275
61	0x3e5e2f28	0.21697676
62	0x3ea1e141	0.31617168
63	0x3e9cf2eb	0.30654082
64	0x3dc0fa19	0.09422702
65	0x3eacefe3	0.3377677
66	0xbe6cbed4	-0.2311967
67	0xbdc5b51b	-0.09653684
68	0xbe9240a6	-0.28564948
69	0xbe2d1dac	-0.1690585
70	0xbe12418c	-0.14282817
71	0xbce439fe	-0.027859684
72	0x3ea6e72a	0.3259824
73	0xbe6c77d8	-0.23092592
74	0x3e6b8cb7	0.23002897
75	0x3e8530f7	0.2601392
76	0xbbc3d83d	-0.0059767053
77	0xbe6d8dac	-0.23198575
78	0x3d000bae	0.03126114
79	0xbeb4aaec	-0.35286653
80	0x3e07ec76	0.13273796
81	0xbeaa4709	-0.3325732
82	0xbd1a3748	-0.037650377
83	0xbe866103	-0.2624589
84	0xbc86da30	-0.016461462
85	0x3e8126ff	0.25225064
86	0x3e335b22	0.17515233
87	0xbeade645	-0.33964744
88	0x3d0d2943	0.03446318
89	0xbda3825f	-0.07983851
90	0x3eb35f35	0.35033575
91	0xbe28ccaa	-0.16484323
92	0x3de1ac17	0.11019152
93	0xbd8a4c44	-0.06752828
94	0xbdde99ea	-0.108692005
95	0xbca42d20	-0.020041049
96	0x3e9bdb37	0.30440685
97	0xbe99eb62	-0.30062395
98	0xbe8a747f	-0.27042004
99	0x3e042109	0.12903227

weight f4 [1, 100]
0	0x3ca2fd78	0.019896254
1	0x3d31c7ea	0.043403544
2	0xbc207ee8	-0.009795882
3	0xbd847500	-0.064676285
4	0xbcb37a9b	-0.021909049
5	0xbd92bdf0	-0.07165134
6	0x3da2951e	0.07938598
7	0x3d2e741e	0.042591207
8	0x3c6a05a8	0.014283575
9	0xbd3cd798	-0.046104044
10	0x3c6d5b07	0.014487035
11	0x3db94864	0.090470105
12	0x3cdd60f4	0.02702377
13	0x3cf6b80c	0.030117057
14	0x3d9866d9	0.07441492
15	0x3dca5c71	0.09880913
16	0x3b3b9c40	0.0028627068
17	0x3d10a71a	0.03531561
18	0x3d2909ab	0.041268986
19	0x3d016a92	0.031595774
20	0xbd64c51b	-0.055852037
21	0x3d80cf8d	0.06289587
22	0xbd8907b3	-0.06690922
23	0x3d03d3da	0.03218446
24	0x3dcbe179	0.09955115
25	0x3c01b1f6	0.007915964
26	0x3c377c56	0.011199078
27	0xbc51ff10	-0.012817159
28	0x3da95cb0	0.08269632
29	0xbd6bbef0	-0.05755514
30	0x3d359795	0.044334013
31	0x3d1e6e14	0.038679197
32	0xbd120fac	-0.035659477
33	0x3c194cd4	0.009356696
34	0x3dbc4b5d	0.09194062
35	0xbd7e4b9e	-0.062083833
36	0x3d9fe436	0.078072
37	0xbd48526d	-0.048906732
38	0x3d3ac248	0.045595437
39	0xbcd47cb8	-0.025938377
40	0xbc873900	-0.016506672
41	0xbdb8fb82	-0.09032346
42	0xbdc30abd	-0.095235325
43	0x3ce31b86	0.027723085
44	0xbd827f54	-0.06371942
45	0x3cc4668e	0.023974683
46	0x3ce6f47a	0.028192747
47	0xbc560ad8	-0.013064109
48	0x3dc7ec49	0.09761865
49	0xbd5ef11c	-0.05442916
50	0x3cc5eef8	0.0241618
51	0x3d72db02	0.059290893
52	0xbc1257a8	-0.008932032
53	0xbda9d08a	-0.08291729
54	0xbdb6f2cd	-0.08933029
55	0xbd84bd64	-0.06481436
56	0xbc90aa21	-0.017659249
57	0xbd8da4df	-0.06916212
58	0xbc6cbbf0	-0.014449105
59	0x3dca08bd	0.09864948
60	0x3d6dbeee	0.058043413
61	0x3da4cf74	0.08047381
62	0x3ad6a340	0.0016375557
63	0xbd160170	-0.036622465
64	0x3c987b93	0.018613612
65	0x3dbcf4bb	0.09226366
66	0xbc50d9c5	-0.012747233
67	0xbcc1e961	-0.023670854
68	0x3dc99c09	0.098442145
69	0xbd71a6aa	-0.058996834
70	0xbd65882a	-0.05603806
71	0xbd594f87	-0.05305436
72	0xbd0af315	-0.033923227
73	0xbd97d745	-0.07414106
74	0x3b82ea89	0.003995244
75	0xbb3ed660	-0.0029119477
76	0x3c3d2598	0.011544608
77	0xbdaa1cb6	-0.083062574
78	0xbcecec9e	-0.028921422
79	0xbd4de110	-0.050263464
80	0x3d780bb6	0.060558043
81	0x3d193680	0.03740549
82	0xbdc0bba5	-0.0941079
83	0x3dac32cd	0.08408127
84	0xbd359797	-0.04433402
85	0xbd5ff95c	-0.054681167
86	0x3dd74f80	0.1051321
87	0xbd056b26	-0.032572888
88	0xbd5b3f66	-0.05352726
89	0x3c9c0833	0.019046878
90	0x3db30a47	0.087421946
91	0xbd73bef0	-0.059508264
92	0xbd90d394	-0.07071605
93	0xbd469ed3	-0.04849131
94	0x3c36a7a8	0.011148371
95	0x3d028dd6	0.031873547
96	0x3dc4030d	0.095708944
97	0x3db55889	0.08854777
98	0xbcef1976	-0.029186945
99	0x3c0194e8	0.007909037
